<?xml version="1.0" ?>
<net name="torch-jit-export" version="11">
	<layers>
		<layer id="0" name="input" type="Parameter" version="opset1">
			<data shape="1,3,120,160" element_type="f32"/>
			<rt_info>
				<attribute name="fused_names" version="0" value="input"/>
			</rt_info>
			<output>
				<port id="0" precision="FP32" names="input">
					<dim>1</dim>
					<dim>3</dim>
					<dim>120</dim>
					<dim>160</dim>
				</port>
			</output>
		</layer>
		<layer id="1" name="331" type="Const" version="opset1">
			<data element_type="f32" shape="16, 3, 3, 3" offset="0" size="1728"/>
			<rt_info>
				<attribute name="fused_names" version="0" value="331"/>
			</rt_info>
			<output>
				<port id="0" precision="FP32" names="331">
					<dim>16</dim>
					<dim>3</dim>
					<dim>3</dim>
					<dim>3</dim>
				</port>
			</output>
		</layer>
		<layer id="2" name="Conv_0/WithoutBiases" type="Convolution" version="opset1">
			<data strides="2, 2" dilations="1, 1" pads_begin="1, 1" pads_end="1, 1" auto_pad="explicit"/>
			<rt_info>
				<attribute name="fused_names" version="0" value="Conv_0/WithoutBiases"/>
			</rt_info>
			<input>
				<port id="0" precision="FP32">
					<dim>1</dim>
					<dim>3</dim>
					<dim>120</dim>
					<dim>160</dim>
				</port>
				<port id="1" precision="FP32">
					<dim>16</dim>
					<dim>3</dim>
					<dim>3</dim>
					<dim>3</dim>
				</port>
			</input>
			<output>
				<port id="2" precision="FP32">
					<dim>1</dim>
					<dim>16</dim>
					<dim>60</dim>
					<dim>80</dim>
				</port>
			</output>
		</layer>
		<layer id="3" name="Reshape_113" type="Const" version="opset1">
			<data element_type="f32" shape="1, 16, 1, 1" offset="1728" size="64"/>
			<output>
				<port id="0" precision="FP32">
					<dim>1</dim>
					<dim>16</dim>
					<dim>1</dim>
					<dim>1</dim>
				</port>
			</output>
		</layer>
		<layer id="4" name="Conv_0" type="Add" version="opset1">
			<data auto_broadcast="numpy"/>
			<rt_info>
				<attribute name="fused_names" version="0" value="Concat_112, Conv_0, Reshape_113"/>
			</rt_info>
			<input>
				<port id="0" precision="FP32">
					<dim>1</dim>
					<dim>16</dim>
					<dim>60</dim>
					<dim>80</dim>
				</port>
				<port id="1" precision="FP32">
					<dim>1</dim>
					<dim>16</dim>
					<dim>1</dim>
					<dim>1</dim>
				</port>
			</input>
			<output>
				<port id="2" precision="FP32" names="330">
					<dim>1</dim>
					<dim>16</dim>
					<dim>60</dim>
					<dim>80</dim>
				</port>
			</output>
		</layer>
		<layer id="5" name="Relu_1" type="ReLU" version="opset1">
			<rt_info>
				<attribute name="fused_names" version="0" value="Relu_1"/>
			</rt_info>
			<input>
				<port id="0" precision="FP32">
					<dim>1</dim>
					<dim>16</dim>
					<dim>60</dim>
					<dim>80</dim>
				</port>
			</input>
			<output>
				<port id="1" precision="FP32" names="179">
					<dim>1</dim>
					<dim>16</dim>
					<dim>60</dim>
					<dim>80</dim>
				</port>
			</output>
		</layer>
		<layer id="6" name="model0.conv2.conv1.weight" type="Const" version="opset1">
			<data element_type="f32" shape="16, 16, 1, 1" offset="1792" size="1024"/>
			<rt_info>
				<attribute name="fused_names" version="0" value="model0.conv2.conv1.weight"/>
			</rt_info>
			<output>
				<port id="0" precision="FP32" names="model0.conv2.conv1.weight">
					<dim>16</dim>
					<dim>16</dim>
					<dim>1</dim>
					<dim>1</dim>
				</port>
			</output>
		</layer>
		<layer id="7" name="Conv_2/WithoutBiases" type="Convolution" version="opset1">
			<data strides="1, 1" dilations="1, 1" pads_begin="0, 0" pads_end="0, 0" auto_pad="explicit"/>
			<rt_info>
				<attribute name="fused_names" version="0" value="Conv_2/WithoutBiases"/>
			</rt_info>
			<input>
				<port id="0" precision="FP32">
					<dim>1</dim>
					<dim>16</dim>
					<dim>60</dim>
					<dim>80</dim>
				</port>
				<port id="1" precision="FP32">
					<dim>16</dim>
					<dim>16</dim>
					<dim>1</dim>
					<dim>1</dim>
				</port>
			</input>
			<output>
				<port id="2" precision="FP32">
					<dim>1</dim>
					<dim>16</dim>
					<dim>60</dim>
					<dim>80</dim>
				</port>
			</output>
		</layer>
		<layer id="8" name="Reshape_162" type="Const" version="opset1">
			<data element_type="f32" shape="1, 16, 1, 1" offset="2816" size="64"/>
			<output>
				<port id="0" precision="FP32">
					<dim>1</dim>
					<dim>16</dim>
					<dim>1</dim>
					<dim>1</dim>
				</port>
			</output>
		</layer>
		<layer id="9" name="Conv_2" type="Add" version="opset1">
			<data auto_broadcast="numpy"/>
			<rt_info>
				<attribute name="fused_names" version="0" value="Concat_161, Conv_2, Reshape_162"/>
			</rt_info>
			<input>
				<port id="0" precision="FP32">
					<dim>1</dim>
					<dim>16</dim>
					<dim>60</dim>
					<dim>80</dim>
				</port>
				<port id="1" precision="FP32">
					<dim>1</dim>
					<dim>16</dim>
					<dim>1</dim>
					<dim>1</dim>
				</port>
			</input>
			<output>
				<port id="2" precision="FP32" names="180">
					<dim>1</dim>
					<dim>16</dim>
					<dim>60</dim>
					<dim>80</dim>
				</port>
			</output>
		</layer>
		<layer id="10" name="Reshape_197" type="Const" version="opset1">
			<data element_type="f32" shape="16, 1, 1, 3, 3" offset="2880" size="576"/>
			<output>
				<port id="0" precision="FP32">
					<dim>16</dim>
					<dim>1</dim>
					<dim>1</dim>
					<dim>3</dim>
					<dim>3</dim>
				</port>
			</output>
		</layer>
		<layer id="11" name="Conv_3/WithoutBiases" type="GroupConvolution" version="opset1">
			<data strides="1, 1" pads_begin="1, 1" pads_end="1, 1" dilations="1, 1" auto_pad="explicit"/>
			<rt_info>
				<attribute name="fused_names" version="0" value="Conv_3/WithoutBiases, Reshape_197"/>
			</rt_info>
			<input>
				<port id="0" precision="FP32">
					<dim>1</dim>
					<dim>16</dim>
					<dim>60</dim>
					<dim>80</dim>
				</port>
				<port id="1" precision="FP32">
					<dim>16</dim>
					<dim>1</dim>
					<dim>1</dim>
					<dim>3</dim>
					<dim>3</dim>
				</port>
			</input>
			<output>
				<port id="2" precision="FP32">
					<dim>1</dim>
					<dim>16</dim>
					<dim>60</dim>
					<dim>80</dim>
				</port>
			</output>
		</layer>
		<layer id="12" name="Reshape_283" type="Const" version="opset1">
			<data element_type="f32" shape="1, 16, 1, 1" offset="3456" size="64"/>
			<output>
				<port id="0" precision="FP32">
					<dim>1</dim>
					<dim>16</dim>
					<dim>1</dim>
					<dim>1</dim>
				</port>
			</output>
		</layer>
		<layer id="13" name="Conv_3" type="Add" version="opset1">
			<data auto_broadcast="numpy"/>
			<rt_info>
				<attribute name="fused_names" version="0" value="Concat_282, Conv_3, Reshape_283"/>
			</rt_info>
			<input>
				<port id="0" precision="FP32">
					<dim>1</dim>
					<dim>16</dim>
					<dim>60</dim>
					<dim>80</dim>
				</port>
				<port id="1" precision="FP32">
					<dim>1</dim>
					<dim>16</dim>
					<dim>1</dim>
					<dim>1</dim>
				</port>
			</input>
			<output>
				<port id="2" precision="FP32" names="333">
					<dim>1</dim>
					<dim>16</dim>
					<dim>60</dim>
					<dim>80</dim>
				</port>
			</output>
		</layer>
		<layer id="14" name="Relu_4" type="ReLU" version="opset1">
			<rt_info>
				<attribute name="fused_names" version="0" value="Relu_4"/>
			</rt_info>
			<input>
				<port id="0" precision="FP32">
					<dim>1</dim>
					<dim>16</dim>
					<dim>60</dim>
					<dim>80</dim>
				</port>
			</input>
			<output>
				<port id="1" precision="FP32" names="183">
					<dim>1</dim>
					<dim>16</dim>
					<dim>60</dim>
					<dim>80</dim>
				</port>
			</output>
		</layer>
		<layer id="15" name="MaxPool_5" type="MaxPool" version="opset8">
			<data strides="2, 2" dilations="1, 1" pads_begin="0, 0" pads_end="0, 0" kernel="2, 2" rounding_type="floor" auto_pad="explicit" index_element_type="i64" axis="0"/>
			<rt_info>
				<attribute name="fused_names" version="0" value="MaxPool_5"/>
			</rt_info>
			<input>
				<port id="0" precision="FP32">
					<dim>1</dim>
					<dim>16</dim>
					<dim>60</dim>
					<dim>80</dim>
				</port>
			</input>
			<output>
				<port id="1" precision="FP32" names="184">
					<dim>1</dim>
					<dim>16</dim>
					<dim>30</dim>
					<dim>40</dim>
				</port>
				<port id="2" precision="I64">
					<dim>1</dim>
					<dim>16</dim>
					<dim>30</dim>
					<dim>40</dim>
				</port>
			</output>
		</layer>
		<layer id="16" name="model1.conv1.conv1.weight" type="Const" version="opset1">
			<data element_type="f32" shape="16, 16, 1, 1" offset="3520" size="1024"/>
			<rt_info>
				<attribute name="fused_names" version="0" value="model1.conv1.conv1.weight"/>
			</rt_info>
			<output>
				<port id="0" precision="FP32" names="model1.conv1.conv1.weight">
					<dim>16</dim>
					<dim>16</dim>
					<dim>1</dim>
					<dim>1</dim>
				</port>
			</output>
		</layer>
		<layer id="17" name="Conv_6/WithoutBiases" type="Convolution" version="opset1">
			<data strides="1, 1" dilations="1, 1" pads_begin="0, 0" pads_end="0, 0" auto_pad="explicit"/>
			<rt_info>
				<attribute name="fused_names" version="0" value="Conv_6/WithoutBiases"/>
			</rt_info>
			<input>
				<port id="0" precision="FP32">
					<dim>1</dim>
					<dim>16</dim>
					<dim>30</dim>
					<dim>40</dim>
				</port>
				<port id="1" precision="FP32">
					<dim>16</dim>
					<dim>16</dim>
					<dim>1</dim>
					<dim>1</dim>
				</port>
			</input>
			<output>
				<port id="2" precision="FP32">
					<dim>1</dim>
					<dim>16</dim>
					<dim>30</dim>
					<dim>40</dim>
				</port>
			</output>
		</layer>
		<layer id="18" name="Reshape_333" type="Const" version="opset1">
			<data element_type="f32" shape="1, 16, 1, 1" offset="4544" size="64"/>
			<output>
				<port id="0" precision="FP32">
					<dim>1</dim>
					<dim>16</dim>
					<dim>1</dim>
					<dim>1</dim>
				</port>
			</output>
		</layer>
		<layer id="19" name="Conv_6" type="Add" version="opset1">
			<data auto_broadcast="numpy"/>
			<rt_info>
				<attribute name="fused_names" version="0" value="Concat_332, Conv_6, Reshape_333"/>
			</rt_info>
			<input>
				<port id="0" precision="FP32">
					<dim>1</dim>
					<dim>16</dim>
					<dim>30</dim>
					<dim>40</dim>
				</port>
				<port id="1" precision="FP32">
					<dim>1</dim>
					<dim>16</dim>
					<dim>1</dim>
					<dim>1</dim>
				</port>
			</input>
			<output>
				<port id="2" precision="FP32" names="185">
					<dim>1</dim>
					<dim>16</dim>
					<dim>30</dim>
					<dim>40</dim>
				</port>
			</output>
		</layer>
		<layer id="20" name="Reshape_368" type="Const" version="opset1">
			<data element_type="f32" shape="16, 1, 1, 3, 3" offset="4608" size="576"/>
			<output>
				<port id="0" precision="FP32">
					<dim>16</dim>
					<dim>1</dim>
					<dim>1</dim>
					<dim>3</dim>
					<dim>3</dim>
				</port>
			</output>
		</layer>
		<layer id="21" name="Conv_7/WithoutBiases" type="GroupConvolution" version="opset1">
			<data strides="1, 1" pads_begin="1, 1" pads_end="1, 1" dilations="1, 1" auto_pad="explicit"/>
			<rt_info>
				<attribute name="fused_names" version="0" value="Conv_7/WithoutBiases, Reshape_368"/>
			</rt_info>
			<input>
				<port id="0" precision="FP32">
					<dim>1</dim>
					<dim>16</dim>
					<dim>30</dim>
					<dim>40</dim>
				</port>
				<port id="1" precision="FP32">
					<dim>16</dim>
					<dim>1</dim>
					<dim>1</dim>
					<dim>3</dim>
					<dim>3</dim>
				</port>
			</input>
			<output>
				<port id="2" precision="FP32">
					<dim>1</dim>
					<dim>16</dim>
					<dim>30</dim>
					<dim>40</dim>
				</port>
			</output>
		</layer>
		<layer id="22" name="Reshape_454" type="Const" version="opset1">
			<data element_type="f32" shape="1, 16, 1, 1" offset="5184" size="64"/>
			<output>
				<port id="0" precision="FP32">
					<dim>1</dim>
					<dim>16</dim>
					<dim>1</dim>
					<dim>1</dim>
				</port>
			</output>
		</layer>
		<layer id="23" name="Conv_7" type="Add" version="opset1">
			<data auto_broadcast="numpy"/>
			<rt_info>
				<attribute name="fused_names" version="0" value="Concat_453, Conv_7, Reshape_454"/>
			</rt_info>
			<input>
				<port id="0" precision="FP32">
					<dim>1</dim>
					<dim>16</dim>
					<dim>30</dim>
					<dim>40</dim>
				</port>
				<port id="1" precision="FP32">
					<dim>1</dim>
					<dim>16</dim>
					<dim>1</dim>
					<dim>1</dim>
				</port>
			</input>
			<output>
				<port id="2" precision="FP32" names="336">
					<dim>1</dim>
					<dim>16</dim>
					<dim>30</dim>
					<dim>40</dim>
				</port>
			</output>
		</layer>
		<layer id="24" name="Relu_8" type="ReLU" version="opset1">
			<rt_info>
				<attribute name="fused_names" version="0" value="Relu_8"/>
			</rt_info>
			<input>
				<port id="0" precision="FP32">
					<dim>1</dim>
					<dim>16</dim>
					<dim>30</dim>
					<dim>40</dim>
				</port>
			</input>
			<output>
				<port id="1" precision="FP32" names="188">
					<dim>1</dim>
					<dim>16</dim>
					<dim>30</dim>
					<dim>40</dim>
				</port>
			</output>
		</layer>
		<layer id="25" name="model1.conv2.conv1.weight" type="Const" version="opset1">
			<data element_type="f32" shape="64, 16, 1, 1" offset="5248" size="4096"/>
			<rt_info>
				<attribute name="fused_names" version="0" value="model1.conv2.conv1.weight"/>
			</rt_info>
			<output>
				<port id="0" precision="FP32" names="model1.conv2.conv1.weight">
					<dim>64</dim>
					<dim>16</dim>
					<dim>1</dim>
					<dim>1</dim>
				</port>
			</output>
		</layer>
		<layer id="26" name="Conv_9/WithoutBiases" type="Convolution" version="opset1">
			<data strides="1, 1" dilations="1, 1" pads_begin="0, 0" pads_end="0, 0" auto_pad="explicit"/>
			<rt_info>
				<attribute name="fused_names" version="0" value="Conv_9/WithoutBiases"/>
			</rt_info>
			<input>
				<port id="0" precision="FP32">
					<dim>1</dim>
					<dim>16</dim>
					<dim>30</dim>
					<dim>40</dim>
				</port>
				<port id="1" precision="FP32">
					<dim>64</dim>
					<dim>16</dim>
					<dim>1</dim>
					<dim>1</dim>
				</port>
			</input>
			<output>
				<port id="2" precision="FP32">
					<dim>1</dim>
					<dim>64</dim>
					<dim>30</dim>
					<dim>40</dim>
				</port>
			</output>
		</layer>
		<layer id="27" name="Reshape_503" type="Const" version="opset1">
			<data element_type="f32" shape="1, 64, 1, 1" offset="9344" size="256"/>
			<output>
				<port id="0" precision="FP32">
					<dim>1</dim>
					<dim>64</dim>
					<dim>1</dim>
					<dim>1</dim>
				</port>
			</output>
		</layer>
		<layer id="28" name="Conv_9" type="Add" version="opset1">
			<data auto_broadcast="numpy"/>
			<rt_info>
				<attribute name="fused_names" version="0" value="Concat_502, Conv_9, Reshape_503"/>
			</rt_info>
			<input>
				<port id="0" precision="FP32">
					<dim>1</dim>
					<dim>64</dim>
					<dim>30</dim>
					<dim>40</dim>
				</port>
				<port id="1" precision="FP32">
					<dim>1</dim>
					<dim>64</dim>
					<dim>1</dim>
					<dim>1</dim>
				</port>
			</input>
			<output>
				<port id="2" precision="FP32" names="189">
					<dim>1</dim>
					<dim>64</dim>
					<dim>30</dim>
					<dim>40</dim>
				</port>
			</output>
		</layer>
		<layer id="29" name="Reshape_538" type="Const" version="opset1">
			<data element_type="f32" shape="64, 1, 1, 3, 3" offset="9600" size="2304"/>
			<output>
				<port id="0" precision="FP32">
					<dim>64</dim>
					<dim>1</dim>
					<dim>1</dim>
					<dim>3</dim>
					<dim>3</dim>
				</port>
			</output>
		</layer>
		<layer id="30" name="Conv_10/WithoutBiases" type="GroupConvolution" version="opset1">
			<data strides="1, 1" pads_begin="1, 1" pads_end="1, 1" dilations="1, 1" auto_pad="explicit"/>
			<rt_info>
				<attribute name="fused_names" version="0" value="Conv_10/WithoutBiases, Reshape_538"/>
			</rt_info>
			<input>
				<port id="0" precision="FP32">
					<dim>1</dim>
					<dim>64</dim>
					<dim>30</dim>
					<dim>40</dim>
				</port>
				<port id="1" precision="FP32">
					<dim>64</dim>
					<dim>1</dim>
					<dim>1</dim>
					<dim>3</dim>
					<dim>3</dim>
				</port>
			</input>
			<output>
				<port id="2" precision="FP32">
					<dim>1</dim>
					<dim>64</dim>
					<dim>30</dim>
					<dim>40</dim>
				</port>
			</output>
		</layer>
		<layer id="31" name="Reshape_624" type="Const" version="opset1">
			<data element_type="f32" shape="1, 64, 1, 1" offset="11904" size="256"/>
			<output>
				<port id="0" precision="FP32">
					<dim>1</dim>
					<dim>64</dim>
					<dim>1</dim>
					<dim>1</dim>
				</port>
			</output>
		</layer>
		<layer id="32" name="Conv_10" type="Add" version="opset1">
			<data auto_broadcast="numpy"/>
			<rt_info>
				<attribute name="fused_names" version="0" value="Concat_623, Conv_10, Reshape_624"/>
			</rt_info>
			<input>
				<port id="0" precision="FP32">
					<dim>1</dim>
					<dim>64</dim>
					<dim>30</dim>
					<dim>40</dim>
				</port>
				<port id="1" precision="FP32">
					<dim>1</dim>
					<dim>64</dim>
					<dim>1</dim>
					<dim>1</dim>
				</port>
			</input>
			<output>
				<port id="2" precision="FP32" names="339">
					<dim>1</dim>
					<dim>64</dim>
					<dim>30</dim>
					<dim>40</dim>
				</port>
			</output>
		</layer>
		<layer id="33" name="Relu_11" type="ReLU" version="opset1">
			<rt_info>
				<attribute name="fused_names" version="0" value="Relu_11"/>
			</rt_info>
			<input>
				<port id="0" precision="FP32">
					<dim>1</dim>
					<dim>64</dim>
					<dim>30</dim>
					<dim>40</dim>
				</port>
			</input>
			<output>
				<port id="1" precision="FP32" names="192">
					<dim>1</dim>
					<dim>64</dim>
					<dim>30</dim>
					<dim>40</dim>
				</port>
			</output>
		</layer>
		<layer id="34" name="model2.conv1.conv1.weight" type="Const" version="opset1">
			<data element_type="f32" shape="64, 64, 1, 1" offset="12160" size="16384"/>
			<rt_info>
				<attribute name="fused_names" version="0" value="model2.conv1.conv1.weight"/>
			</rt_info>
			<output>
				<port id="0" precision="FP32" names="model2.conv1.conv1.weight">
					<dim>64</dim>
					<dim>64</dim>
					<dim>1</dim>
					<dim>1</dim>
				</port>
			</output>
		</layer>
		<layer id="35" name="Conv_12/WithoutBiases" type="Convolution" version="opset1">
			<data strides="1, 1" dilations="1, 1" pads_begin="0, 0" pads_end="0, 0" auto_pad="explicit"/>
			<rt_info>
				<attribute name="fused_names" version="0" value="Conv_12/WithoutBiases"/>
			</rt_info>
			<input>
				<port id="0" precision="FP32">
					<dim>1</dim>
					<dim>64</dim>
					<dim>30</dim>
					<dim>40</dim>
				</port>
				<port id="1" precision="FP32">
					<dim>64</dim>
					<dim>64</dim>
					<dim>1</dim>
					<dim>1</dim>
				</port>
			</input>
			<output>
				<port id="2" precision="FP32">
					<dim>1</dim>
					<dim>64</dim>
					<dim>30</dim>
					<dim>40</dim>
				</port>
			</output>
		</layer>
		<layer id="36" name="Reshape_673" type="Const" version="opset1">
			<data element_type="f32" shape="1, 64, 1, 1" offset="28544" size="256"/>
			<output>
				<port id="0" precision="FP32">
					<dim>1</dim>
					<dim>64</dim>
					<dim>1</dim>
					<dim>1</dim>
				</port>
			</output>
		</layer>
		<layer id="37" name="Conv_12" type="Add" version="opset1">
			<data auto_broadcast="numpy"/>
			<rt_info>
				<attribute name="fused_names" version="0" value="Concat_672, Conv_12, Reshape_673"/>
			</rt_info>
			<input>
				<port id="0" precision="FP32">
					<dim>1</dim>
					<dim>64</dim>
					<dim>30</dim>
					<dim>40</dim>
				</port>
				<port id="1" precision="FP32">
					<dim>1</dim>
					<dim>64</dim>
					<dim>1</dim>
					<dim>1</dim>
				</port>
			</input>
			<output>
				<port id="2" precision="FP32" names="193">
					<dim>1</dim>
					<dim>64</dim>
					<dim>30</dim>
					<dim>40</dim>
				</port>
			</output>
		</layer>
		<layer id="38" name="Reshape_708" type="Const" version="opset1">
			<data element_type="f32" shape="64, 1, 1, 3, 3" offset="28800" size="2304"/>
			<output>
				<port id="0" precision="FP32">
					<dim>64</dim>
					<dim>1</dim>
					<dim>1</dim>
					<dim>3</dim>
					<dim>3</dim>
				</port>
			</output>
		</layer>
		<layer id="39" name="Conv_13/WithoutBiases" type="GroupConvolution" version="opset1">
			<data strides="1, 1" pads_begin="1, 1" pads_end="1, 1" dilations="1, 1" auto_pad="explicit"/>
			<rt_info>
				<attribute name="fused_names" version="0" value="Conv_13/WithoutBiases, Reshape_708"/>
			</rt_info>
			<input>
				<port id="0" precision="FP32">
					<dim>1</dim>
					<dim>64</dim>
					<dim>30</dim>
					<dim>40</dim>
				</port>
				<port id="1" precision="FP32">
					<dim>64</dim>
					<dim>1</dim>
					<dim>1</dim>
					<dim>3</dim>
					<dim>3</dim>
				</port>
			</input>
			<output>
				<port id="2" precision="FP32">
					<dim>1</dim>
					<dim>64</dim>
					<dim>30</dim>
					<dim>40</dim>
				</port>
			</output>
		</layer>
		<layer id="40" name="Reshape_794" type="Const" version="opset1">
			<data element_type="f32" shape="1, 64, 1, 1" offset="31104" size="256"/>
			<output>
				<port id="0" precision="FP32">
					<dim>1</dim>
					<dim>64</dim>
					<dim>1</dim>
					<dim>1</dim>
				</port>
			</output>
		</layer>
		<layer id="41" name="Conv_13" type="Add" version="opset1">
			<data auto_broadcast="numpy"/>
			<rt_info>
				<attribute name="fused_names" version="0" value="Concat_793, Conv_13, Reshape_794"/>
			</rt_info>
			<input>
				<port id="0" precision="FP32">
					<dim>1</dim>
					<dim>64</dim>
					<dim>30</dim>
					<dim>40</dim>
				</port>
				<port id="1" precision="FP32">
					<dim>1</dim>
					<dim>64</dim>
					<dim>1</dim>
					<dim>1</dim>
				</port>
			</input>
			<output>
				<port id="2" precision="FP32" names="342">
					<dim>1</dim>
					<dim>64</dim>
					<dim>30</dim>
					<dim>40</dim>
				</port>
			</output>
		</layer>
		<layer id="42" name="Relu_14" type="ReLU" version="opset1">
			<rt_info>
				<attribute name="fused_names" version="0" value="Relu_14"/>
			</rt_info>
			<input>
				<port id="0" precision="FP32">
					<dim>1</dim>
					<dim>64</dim>
					<dim>30</dim>
					<dim>40</dim>
				</port>
			</input>
			<output>
				<port id="1" precision="FP32" names="196">
					<dim>1</dim>
					<dim>64</dim>
					<dim>30</dim>
					<dim>40</dim>
				</port>
			</output>
		</layer>
		<layer id="43" name="model2.conv2.conv1.weight" type="Const" version="opset1">
			<data element_type="f32" shape="64, 64, 1, 1" offset="31360" size="16384"/>
			<rt_info>
				<attribute name="fused_names" version="0" value="model2.conv2.conv1.weight"/>
			</rt_info>
			<output>
				<port id="0" precision="FP32" names="model2.conv2.conv1.weight">
					<dim>64</dim>
					<dim>64</dim>
					<dim>1</dim>
					<dim>1</dim>
				</port>
			</output>
		</layer>
		<layer id="44" name="Conv_15/WithoutBiases" type="Convolution" version="opset1">
			<data strides="1, 1" dilations="1, 1" pads_begin="0, 0" pads_end="0, 0" auto_pad="explicit"/>
			<rt_info>
				<attribute name="fused_names" version="0" value="Conv_15/WithoutBiases"/>
			</rt_info>
			<input>
				<port id="0" precision="FP32">
					<dim>1</dim>
					<dim>64</dim>
					<dim>30</dim>
					<dim>40</dim>
				</port>
				<port id="1" precision="FP32">
					<dim>64</dim>
					<dim>64</dim>
					<dim>1</dim>
					<dim>1</dim>
				</port>
			</input>
			<output>
				<port id="2" precision="FP32">
					<dim>1</dim>
					<dim>64</dim>
					<dim>30</dim>
					<dim>40</dim>
				</port>
			</output>
		</layer>
		<layer id="45" name="Reshape_843" type="Const" version="opset1">
			<data element_type="f32" shape="1, 64, 1, 1" offset="47744" size="256"/>
			<output>
				<port id="0" precision="FP32">
					<dim>1</dim>
					<dim>64</dim>
					<dim>1</dim>
					<dim>1</dim>
				</port>
			</output>
		</layer>
		<layer id="46" name="Conv_15" type="Add" version="opset1">
			<data auto_broadcast="numpy"/>
			<rt_info>
				<attribute name="fused_names" version="0" value="Concat_842, Conv_15, Reshape_843"/>
			</rt_info>
			<input>
				<port id="0" precision="FP32">
					<dim>1</dim>
					<dim>64</dim>
					<dim>30</dim>
					<dim>40</dim>
				</port>
				<port id="1" precision="FP32">
					<dim>1</dim>
					<dim>64</dim>
					<dim>1</dim>
					<dim>1</dim>
				</port>
			</input>
			<output>
				<port id="2" precision="FP32" names="197">
					<dim>1</dim>
					<dim>64</dim>
					<dim>30</dim>
					<dim>40</dim>
				</port>
			</output>
		</layer>
		<layer id="47" name="Reshape_878" type="Const" version="opset1">
			<data element_type="f32" shape="64, 1, 1, 3, 3" offset="48000" size="2304"/>
			<output>
				<port id="0" precision="FP32">
					<dim>64</dim>
					<dim>1</dim>
					<dim>1</dim>
					<dim>3</dim>
					<dim>3</dim>
				</port>
			</output>
		</layer>
		<layer id="48" name="Conv_16/WithoutBiases" type="GroupConvolution" version="opset1">
			<data strides="1, 1" pads_begin="1, 1" pads_end="1, 1" dilations="1, 1" auto_pad="explicit"/>
			<rt_info>
				<attribute name="fused_names" version="0" value="Conv_16/WithoutBiases, Reshape_878"/>
			</rt_info>
			<input>
				<port id="0" precision="FP32">
					<dim>1</dim>
					<dim>64</dim>
					<dim>30</dim>
					<dim>40</dim>
				</port>
				<port id="1" precision="FP32">
					<dim>64</dim>
					<dim>1</dim>
					<dim>1</dim>
					<dim>3</dim>
					<dim>3</dim>
				</port>
			</input>
			<output>
				<port id="2" precision="FP32">
					<dim>1</dim>
					<dim>64</dim>
					<dim>30</dim>
					<dim>40</dim>
				</port>
			</output>
		</layer>
		<layer id="49" name="Reshape_964" type="Const" version="opset1">
			<data element_type="f32" shape="1, 64, 1, 1" offset="50304" size="256"/>
			<output>
				<port id="0" precision="FP32">
					<dim>1</dim>
					<dim>64</dim>
					<dim>1</dim>
					<dim>1</dim>
				</port>
			</output>
		</layer>
		<layer id="50" name="Conv_16" type="Add" version="opset1">
			<data auto_broadcast="numpy"/>
			<rt_info>
				<attribute name="fused_names" version="0" value="Concat_963, Conv_16, Reshape_964"/>
			</rt_info>
			<input>
				<port id="0" precision="FP32">
					<dim>1</dim>
					<dim>64</dim>
					<dim>30</dim>
					<dim>40</dim>
				</port>
				<port id="1" precision="FP32">
					<dim>1</dim>
					<dim>64</dim>
					<dim>1</dim>
					<dim>1</dim>
				</port>
			</input>
			<output>
				<port id="2" precision="FP32" names="345">
					<dim>1</dim>
					<dim>64</dim>
					<dim>30</dim>
					<dim>40</dim>
				</port>
			</output>
		</layer>
		<layer id="51" name="Relu_17" type="ReLU" version="opset1">
			<rt_info>
				<attribute name="fused_names" version="0" value="Relu_17"/>
			</rt_info>
			<input>
				<port id="0" precision="FP32">
					<dim>1</dim>
					<dim>64</dim>
					<dim>30</dim>
					<dim>40</dim>
				</port>
			</input>
			<output>
				<port id="1" precision="FP32" names="200">
					<dim>1</dim>
					<dim>64</dim>
					<dim>30</dim>
					<dim>40</dim>
				</port>
			</output>
		</layer>
		<layer id="52" name="MaxPool_18" type="MaxPool" version="opset8">
			<data strides="2, 2" dilations="1, 1" pads_begin="0, 0" pads_end="0, 0" kernel="2, 2" rounding_type="floor" auto_pad="explicit" index_element_type="i64" axis="0"/>
			<rt_info>
				<attribute name="fused_names" version="0" value="MaxPool_18"/>
			</rt_info>
			<input>
				<port id="0" precision="FP32">
					<dim>1</dim>
					<dim>64</dim>
					<dim>30</dim>
					<dim>40</dim>
				</port>
			</input>
			<output>
				<port id="1" precision="FP32" names="201">
					<dim>1</dim>
					<dim>64</dim>
					<dim>15</dim>
					<dim>20</dim>
				</port>
				<port id="2" precision="I64">
					<dim>1</dim>
					<dim>64</dim>
					<dim>15</dim>
					<dim>20</dim>
				</port>
			</output>
		</layer>
		<layer id="53" name="model3.conv1.conv1.weight" type="Const" version="opset1">
			<data element_type="f32" shape="64, 64, 1, 1" offset="50560" size="16384"/>
			<rt_info>
				<attribute name="fused_names" version="0" value="model3.conv1.conv1.weight"/>
			</rt_info>
			<output>
				<port id="0" precision="FP32" names="model3.conv1.conv1.weight">
					<dim>64</dim>
					<dim>64</dim>
					<dim>1</dim>
					<dim>1</dim>
				</port>
			</output>
		</layer>
		<layer id="54" name="Conv_19/WithoutBiases" type="Convolution" version="opset1">
			<data strides="1, 1" dilations="1, 1" pads_begin="0, 0" pads_end="0, 0" auto_pad="explicit"/>
			<rt_info>
				<attribute name="fused_names" version="0" value="Conv_19/WithoutBiases"/>
			</rt_info>
			<input>
				<port id="0" precision="FP32">
					<dim>1</dim>
					<dim>64</dim>
					<dim>15</dim>
					<dim>20</dim>
				</port>
				<port id="1" precision="FP32">
					<dim>64</dim>
					<dim>64</dim>
					<dim>1</dim>
					<dim>1</dim>
				</port>
			</input>
			<output>
				<port id="2" precision="FP32">
					<dim>1</dim>
					<dim>64</dim>
					<dim>15</dim>
					<dim>20</dim>
				</port>
			</output>
		</layer>
		<layer id="55" name="Reshape_1014" type="Const" version="opset1">
			<data element_type="f32" shape="1, 64, 1, 1" offset="66944" size="256"/>
			<output>
				<port id="0" precision="FP32">
					<dim>1</dim>
					<dim>64</dim>
					<dim>1</dim>
					<dim>1</dim>
				</port>
			</output>
		</layer>
		<layer id="56" name="Conv_19" type="Add" version="opset1">
			<data auto_broadcast="numpy"/>
			<rt_info>
				<attribute name="fused_names" version="0" value="Concat_1013, Conv_19, Reshape_1014"/>
			</rt_info>
			<input>
				<port id="0" precision="FP32">
					<dim>1</dim>
					<dim>64</dim>
					<dim>15</dim>
					<dim>20</dim>
				</port>
				<port id="1" precision="FP32">
					<dim>1</dim>
					<dim>64</dim>
					<dim>1</dim>
					<dim>1</dim>
				</port>
			</input>
			<output>
				<port id="2" precision="FP32" names="202">
					<dim>1</dim>
					<dim>64</dim>
					<dim>15</dim>
					<dim>20</dim>
				</port>
			</output>
		</layer>
		<layer id="57" name="Reshape_1049" type="Const" version="opset1">
			<data element_type="f32" shape="64, 1, 1, 3, 3" offset="67200" size="2304"/>
			<output>
				<port id="0" precision="FP32">
					<dim>64</dim>
					<dim>1</dim>
					<dim>1</dim>
					<dim>3</dim>
					<dim>3</dim>
				</port>
			</output>
		</layer>
		<layer id="58" name="Conv_20/WithoutBiases" type="GroupConvolution" version="opset1">
			<data strides="1, 1" pads_begin="1, 1" pads_end="1, 1" dilations="1, 1" auto_pad="explicit"/>
			<rt_info>
				<attribute name="fused_names" version="0" value="Conv_20/WithoutBiases, Reshape_1049"/>
			</rt_info>
			<input>
				<port id="0" precision="FP32">
					<dim>1</dim>
					<dim>64</dim>
					<dim>15</dim>
					<dim>20</dim>
				</port>
				<port id="1" precision="FP32">
					<dim>64</dim>
					<dim>1</dim>
					<dim>1</dim>
					<dim>3</dim>
					<dim>3</dim>
				</port>
			</input>
			<output>
				<port id="2" precision="FP32">
					<dim>1</dim>
					<dim>64</dim>
					<dim>15</dim>
					<dim>20</dim>
				</port>
			</output>
		</layer>
		<layer id="59" name="Reshape_1135" type="Const" version="opset1">
			<data element_type="f32" shape="1, 64, 1, 1" offset="69504" size="256"/>
			<output>
				<port id="0" precision="FP32">
					<dim>1</dim>
					<dim>64</dim>
					<dim>1</dim>
					<dim>1</dim>
				</port>
			</output>
		</layer>
		<layer id="60" name="Conv_20" type="Add" version="opset1">
			<data auto_broadcast="numpy"/>
			<rt_info>
				<attribute name="fused_names" version="0" value="Concat_1134, Conv_20, Reshape_1135"/>
			</rt_info>
			<input>
				<port id="0" precision="FP32">
					<dim>1</dim>
					<dim>64</dim>
					<dim>15</dim>
					<dim>20</dim>
				</port>
				<port id="1" precision="FP32">
					<dim>1</dim>
					<dim>64</dim>
					<dim>1</dim>
					<dim>1</dim>
				</port>
			</input>
			<output>
				<port id="2" precision="FP32" names="348">
					<dim>1</dim>
					<dim>64</dim>
					<dim>15</dim>
					<dim>20</dim>
				</port>
			</output>
		</layer>
		<layer id="61" name="Relu_21" type="ReLU" version="opset1">
			<rt_info>
				<attribute name="fused_names" version="0" value="Relu_21"/>
			</rt_info>
			<input>
				<port id="0" precision="FP32">
					<dim>1</dim>
					<dim>64</dim>
					<dim>15</dim>
					<dim>20</dim>
				</port>
			</input>
			<output>
				<port id="1" precision="FP32" names="205">
					<dim>1</dim>
					<dim>64</dim>
					<dim>15</dim>
					<dim>20</dim>
				</port>
			</output>
		</layer>
		<layer id="62" name="model3.conv2.conv1.weight" type="Const" version="opset1">
			<data element_type="f32" shape="64, 64, 1, 1" offset="69760" size="16384"/>
			<rt_info>
				<attribute name="fused_names" version="0" value="model3.conv2.conv1.weight"/>
			</rt_info>
			<output>
				<port id="0" precision="FP32" names="model3.conv2.conv1.weight">
					<dim>64</dim>
					<dim>64</dim>
					<dim>1</dim>
					<dim>1</dim>
				</port>
			</output>
		</layer>
		<layer id="63" name="Conv_22/WithoutBiases" type="Convolution" version="opset1">
			<data strides="1, 1" dilations="1, 1" pads_begin="0, 0" pads_end="0, 0" auto_pad="explicit"/>
			<rt_info>
				<attribute name="fused_names" version="0" value="Conv_22/WithoutBiases"/>
			</rt_info>
			<input>
				<port id="0" precision="FP32">
					<dim>1</dim>
					<dim>64</dim>
					<dim>15</dim>
					<dim>20</dim>
				</port>
				<port id="1" precision="FP32">
					<dim>64</dim>
					<dim>64</dim>
					<dim>1</dim>
					<dim>1</dim>
				</port>
			</input>
			<output>
				<port id="2" precision="FP32">
					<dim>1</dim>
					<dim>64</dim>
					<dim>15</dim>
					<dim>20</dim>
				</port>
			</output>
		</layer>
		<layer id="64" name="Reshape_1184" type="Const" version="opset1">
			<data element_type="f32" shape="1, 64, 1, 1" offset="86144" size="256"/>
			<output>
				<port id="0" precision="FP32">
					<dim>1</dim>
					<dim>64</dim>
					<dim>1</dim>
					<dim>1</dim>
				</port>
			</output>
		</layer>
		<layer id="65" name="Conv_22" type="Add" version="opset1">
			<data auto_broadcast="numpy"/>
			<rt_info>
				<attribute name="fused_names" version="0" value="Concat_1183, Conv_22, Reshape_1184"/>
			</rt_info>
			<input>
				<port id="0" precision="FP32">
					<dim>1</dim>
					<dim>64</dim>
					<dim>15</dim>
					<dim>20</dim>
				</port>
				<port id="1" precision="FP32">
					<dim>1</dim>
					<dim>64</dim>
					<dim>1</dim>
					<dim>1</dim>
				</port>
			</input>
			<output>
				<port id="2" precision="FP32" names="206">
					<dim>1</dim>
					<dim>64</dim>
					<dim>15</dim>
					<dim>20</dim>
				</port>
			</output>
		</layer>
		<layer id="66" name="Reshape_1219" type="Const" version="opset1">
			<data element_type="f32" shape="64, 1, 1, 3, 3" offset="86400" size="2304"/>
			<output>
				<port id="0" precision="FP32">
					<dim>64</dim>
					<dim>1</dim>
					<dim>1</dim>
					<dim>3</dim>
					<dim>3</dim>
				</port>
			</output>
		</layer>
		<layer id="67" name="Conv_23/WithoutBiases" type="GroupConvolution" version="opset1">
			<data strides="1, 1" pads_begin="1, 1" pads_end="1, 1" dilations="1, 1" auto_pad="explicit"/>
			<rt_info>
				<attribute name="fused_names" version="0" value="Conv_23/WithoutBiases, Reshape_1219"/>
			</rt_info>
			<input>
				<port id="0" precision="FP32">
					<dim>1</dim>
					<dim>64</dim>
					<dim>15</dim>
					<dim>20</dim>
				</port>
				<port id="1" precision="FP32">
					<dim>64</dim>
					<dim>1</dim>
					<dim>1</dim>
					<dim>3</dim>
					<dim>3</dim>
				</port>
			</input>
			<output>
				<port id="2" precision="FP32">
					<dim>1</dim>
					<dim>64</dim>
					<dim>15</dim>
					<dim>20</dim>
				</port>
			</output>
		</layer>
		<layer id="68" name="Reshape_1305" type="Const" version="opset1">
			<data element_type="f32" shape="1, 64, 1, 1" offset="88704" size="256"/>
			<output>
				<port id="0" precision="FP32">
					<dim>1</dim>
					<dim>64</dim>
					<dim>1</dim>
					<dim>1</dim>
				</port>
			</output>
		</layer>
		<layer id="69" name="Conv_23" type="Add" version="opset1">
			<data auto_broadcast="numpy"/>
			<rt_info>
				<attribute name="fused_names" version="0" value="Concat_1304, Conv_23, Reshape_1305"/>
			</rt_info>
			<input>
				<port id="0" precision="FP32">
					<dim>1</dim>
					<dim>64</dim>
					<dim>15</dim>
					<dim>20</dim>
				</port>
				<port id="1" precision="FP32">
					<dim>1</dim>
					<dim>64</dim>
					<dim>1</dim>
					<dim>1</dim>
				</port>
			</input>
			<output>
				<port id="2" precision="FP32" names="351">
					<dim>1</dim>
					<dim>64</dim>
					<dim>15</dim>
					<dim>20</dim>
				</port>
			</output>
		</layer>
		<layer id="70" name="Relu_24" type="ReLU" version="opset1">
			<rt_info>
				<attribute name="fused_names" version="0" value="Relu_24"/>
			</rt_info>
			<input>
				<port id="0" precision="FP32">
					<dim>1</dim>
					<dim>64</dim>
					<dim>15</dim>
					<dim>20</dim>
				</port>
			</input>
			<output>
				<port id="1" precision="FP32" names="209">
					<dim>1</dim>
					<dim>64</dim>
					<dim>15</dim>
					<dim>20</dim>
				</port>
			</output>
		</layer>
		<layer id="71" name="head.0.conv1.conv1.weight" type="Const" version="opset1">
			<data element_type="f32" shape="64, 64, 1, 1" offset="88960" size="16384"/>
			<rt_info>
				<attribute name="fused_names" version="0" value="head.0.conv1.conv1.weight"/>
			</rt_info>
			<output>
				<port id="0" precision="FP32" names="head.0.conv1.conv1.weight">
					<dim>64</dim>
					<dim>64</dim>
					<dim>1</dim>
					<dim>1</dim>
				</port>
			</output>
		</layer>
		<layer id="72" name="Conv_46/WithoutBiases" type="Convolution" version="opset1">
			<data strides="1, 1" dilations="1, 1" pads_begin="0, 0" pads_end="0, 0" auto_pad="explicit"/>
			<rt_info>
				<attribute name="fused_names" version="0" value="Conv_46/WithoutBiases"/>
			</rt_info>
			<input>
				<port id="0" precision="FP32">
					<dim>1</dim>
					<dim>64</dim>
					<dim>15</dim>
					<dim>20</dim>
				</port>
				<port id="1" precision="FP32">
					<dim>64</dim>
					<dim>64</dim>
					<dim>1</dim>
					<dim>1</dim>
				</port>
			</input>
			<output>
				<port id="2" precision="FP32">
					<dim>1</dim>
					<dim>64</dim>
					<dim>15</dim>
					<dim>20</dim>
				</port>
			</output>
		</layer>
		<layer id="73" name="Reshape_2377" type="Const" version="opset1">
			<data element_type="f32" shape="1, 64, 1, 1" offset="105344" size="256"/>
			<output>
				<port id="0" precision="FP32">
					<dim>1</dim>
					<dim>64</dim>
					<dim>1</dim>
					<dim>1</dim>
				</port>
			</output>
		</layer>
		<layer id="74" name="Conv_46" type="Add" version="opset1">
			<data auto_broadcast="numpy"/>
			<rt_info>
				<attribute name="fused_names" version="0" value="Concat_2376, Conv_46, Reshape_2377"/>
			</rt_info>
			<input>
				<port id="0" precision="FP32">
					<dim>1</dim>
					<dim>64</dim>
					<dim>15</dim>
					<dim>20</dim>
				</port>
				<port id="1" precision="FP32">
					<dim>1</dim>
					<dim>64</dim>
					<dim>1</dim>
					<dim>1</dim>
				</port>
			</input>
			<output>
				<port id="2" precision="FP32" names="237">
					<dim>1</dim>
					<dim>64</dim>
					<dim>15</dim>
					<dim>20</dim>
				</port>
			</output>
		</layer>
		<layer id="75" name="Reshape_2412" type="Const" version="opset1">
			<data element_type="f32" shape="64, 1, 1, 3, 3" offset="105600" size="2304"/>
			<output>
				<port id="0" precision="FP32">
					<dim>64</dim>
					<dim>1</dim>
					<dim>1</dim>
					<dim>3</dim>
					<dim>3</dim>
				</port>
			</output>
		</layer>
		<layer id="76" name="Conv_47/WithoutBiases" type="GroupConvolution" version="opset1">
			<data strides="1, 1" pads_begin="1, 1" pads_end="1, 1" dilations="1, 1" auto_pad="explicit"/>
			<rt_info>
				<attribute name="fused_names" version="0" value="Conv_47/WithoutBiases, Reshape_2412"/>
			</rt_info>
			<input>
				<port id="0" precision="FP32">
					<dim>1</dim>
					<dim>64</dim>
					<dim>15</dim>
					<dim>20</dim>
				</port>
				<port id="1" precision="FP32">
					<dim>64</dim>
					<dim>1</dim>
					<dim>1</dim>
					<dim>3</dim>
					<dim>3</dim>
				</port>
			</input>
			<output>
				<port id="2" precision="FP32">
					<dim>1</dim>
					<dim>64</dim>
					<dim>15</dim>
					<dim>20</dim>
				</port>
			</output>
		</layer>
		<layer id="77" name="Reshape_2498" type="Const" version="opset1">
			<data element_type="f32" shape="1, 64, 1, 1" offset="107904" size="256"/>
			<output>
				<port id="0" precision="FP32">
					<dim>1</dim>
					<dim>64</dim>
					<dim>1</dim>
					<dim>1</dim>
				</port>
			</output>
		</layer>
		<layer id="78" name="Conv_47" type="Add" version="opset1">
			<data auto_broadcast="numpy"/>
			<rt_info>
				<attribute name="fused_names" version="0" value="Concat_2497, Conv_47, Reshape_2498"/>
			</rt_info>
			<input>
				<port id="0" precision="FP32">
					<dim>1</dim>
					<dim>64</dim>
					<dim>15</dim>
					<dim>20</dim>
				</port>
				<port id="1" precision="FP32">
					<dim>1</dim>
					<dim>64</dim>
					<dim>1</dim>
					<dim>1</dim>
				</port>
			</input>
			<output>
				<port id="2" precision="FP32" names="372">
					<dim>1</dim>
					<dim>64</dim>
					<dim>15</dim>
					<dim>20</dim>
				</port>
			</output>
		</layer>
		<layer id="79" name="Relu_48" type="ReLU" version="opset1">
			<rt_info>
				<attribute name="fused_names" version="0" value="Relu_48"/>
			</rt_info>
			<input>
				<port id="0" precision="FP32">
					<dim>1</dim>
					<dim>64</dim>
					<dim>15</dim>
					<dim>20</dim>
				</port>
			</input>
			<output>
				<port id="1" precision="FP32" names="240">
					<dim>1</dim>
					<dim>64</dim>
					<dim>15</dim>
					<dim>20</dim>
				</port>
			</output>
		</layer>
		<layer id="80" name="head.0.conv2.conv1.weight" type="Const" version="opset1">
			<data element_type="f32" shape="51, 64, 1, 1" offset="108160" size="13056"/>
			<rt_info>
				<attribute name="fused_names" version="0" value="head.0.conv2.conv1.weight"/>
			</rt_info>
			<output>
				<port id="0" precision="FP32" names="head.0.conv2.conv1.weight">
					<dim>51</dim>
					<dim>64</dim>
					<dim>1</dim>
					<dim>1</dim>
				</port>
			</output>
		</layer>
		<layer id="81" name="Conv_49/WithoutBiases" type="Convolution" version="opset1">
			<data strides="1, 1" dilations="1, 1" pads_begin="0, 0" pads_end="0, 0" auto_pad="explicit"/>
			<rt_info>
				<attribute name="fused_names" version="0" value="Conv_49/WithoutBiases"/>
			</rt_info>
			<input>
				<port id="0" precision="FP32">
					<dim>1</dim>
					<dim>64</dim>
					<dim>15</dim>
					<dim>20</dim>
				</port>
				<port id="1" precision="FP32">
					<dim>51</dim>
					<dim>64</dim>
					<dim>1</dim>
					<dim>1</dim>
				</port>
			</input>
			<output>
				<port id="2" precision="FP32">
					<dim>1</dim>
					<dim>51</dim>
					<dim>15</dim>
					<dim>20</dim>
				</port>
			</output>
		</layer>
		<layer id="82" name="Reshape_2547" type="Const" version="opset1">
			<data element_type="f32" shape="1, 51, 1, 1" offset="121216" size="204"/>
			<output>
				<port id="0" precision="FP32">
					<dim>1</dim>
					<dim>51</dim>
					<dim>1</dim>
					<dim>1</dim>
				</port>
			</output>
		</layer>
		<layer id="83" name="Conv_49" type="Add" version="opset1">
			<data auto_broadcast="numpy"/>
			<rt_info>
				<attribute name="fused_names" version="0" value="Concat_2546, Conv_49, Reshape_2547"/>
			</rt_info>
			<input>
				<port id="0" precision="FP32">
					<dim>1</dim>
					<dim>51</dim>
					<dim>15</dim>
					<dim>20</dim>
				</port>
				<port id="1" precision="FP32">
					<dim>1</dim>
					<dim>51</dim>
					<dim>1</dim>
					<dim>1</dim>
				</port>
			</input>
			<output>
				<port id="2" precision="FP32" names="241">
					<dim>1</dim>
					<dim>51</dim>
					<dim>15</dim>
					<dim>20</dim>
				</port>
			</output>
		</layer>
		<layer id="84" name="Reshape_2582" type="Const" version="opset1">
			<data element_type="f32" shape="51, 1, 1, 3, 3" offset="121420" size="1836"/>
			<output>
				<port id="0" precision="FP32">
					<dim>51</dim>
					<dim>1</dim>
					<dim>1</dim>
					<dim>3</dim>
					<dim>3</dim>
				</port>
			</output>
		</layer>
		<layer id="85" name="Conv_50/WithoutBiases" type="GroupConvolution" version="opset1">
			<data strides="1, 1" pads_begin="1, 1" pads_end="1, 1" dilations="1, 1" auto_pad="explicit"/>
			<rt_info>
				<attribute name="fused_names" version="0" value="Conv_50/WithoutBiases, Reshape_2582"/>
			</rt_info>
			<input>
				<port id="0" precision="FP32">
					<dim>1</dim>
					<dim>51</dim>
					<dim>15</dim>
					<dim>20</dim>
				</port>
				<port id="1" precision="FP32">
					<dim>51</dim>
					<dim>1</dim>
					<dim>1</dim>
					<dim>3</dim>
					<dim>3</dim>
				</port>
			</input>
			<output>
				<port id="2" precision="FP32">
					<dim>1</dim>
					<dim>51</dim>
					<dim>15</dim>
					<dim>20</dim>
				</port>
			</output>
		</layer>
		<layer id="86" name="Reshape_2668" type="Const" version="opset1">
			<data element_type="f32" shape="1, 51, 1, 1" offset="123256" size="204"/>
			<output>
				<port id="0" precision="FP32">
					<dim>1</dim>
					<dim>51</dim>
					<dim>1</dim>
					<dim>1</dim>
				</port>
			</output>
		</layer>
		<layer id="87" name="Conv_50" type="Add" version="opset1">
			<data auto_broadcast="numpy"/>
			<rt_info>
				<attribute name="fused_names" version="0" value="Concat_2667, Conv_50, Reshape_2668"/>
			</rt_info>
			<input>
				<port id="0" precision="FP32">
					<dim>1</dim>
					<dim>51</dim>
					<dim>15</dim>
					<dim>20</dim>
				</port>
				<port id="1" precision="FP32">
					<dim>1</dim>
					<dim>51</dim>
					<dim>1</dim>
					<dim>1</dim>
				</port>
			</input>
			<output>
				<port id="2" precision="FP32" names="242">
					<dim>1</dim>
					<dim>51</dim>
					<dim>15</dim>
					<dim>20</dim>
				</port>
			</output>
		</layer>
		<layer id="88" name="Constant_2696" type="Const" version="opset1">
			<data element_type="i64" shape="4" offset="123460" size="32"/>
			<rt_info>
				<attribute name="fused_names" version="0" value="Constant_2696"/>
			</rt_info>
			<output>
				<port id="0" precision="I64">
					<dim>4</dim>
				</port>
			</output>
		</layer>
		<layer id="89" name="Transpose_51" type="Transpose" version="opset1">
			<rt_info>
				<attribute name="fused_names" version="0" value="Transpose_51"/>
			</rt_info>
			<input>
				<port id="0" precision="FP32">
					<dim>1</dim>
					<dim>51</dim>
					<dim>15</dim>
					<dim>20</dim>
				</port>
				<port id="1" precision="I64">
					<dim>4</dim>
				</port>
			</input>
			<output>
				<port id="2" precision="FP32" names="243">
					<dim>1</dim>
					<dim>15</dim>
					<dim>20</dim>
					<dim>51</dim>
				</port>
			</output>
		</layer>
		<layer id="90" name="Concat_74" type="Const" version="opset1">
			<data element_type="i64" shape="2" offset="123492" size="16"/>
			<rt_info>
				<attribute name="fused_names" version="0" value="384, Concat_74"/>
			</rt_info>
			<output>
				<port id="0" precision="I64">
					<dim>2</dim>
				</port>
			</output>
		</layer>
		<layer id="91" name="Reshape_75" type="Reshape" version="opset1">
			<data special_zero="true"/>
			<rt_info>
				<attribute name="fused_names" version="0" value="Reshape_75"/>
			</rt_info>
			<input>
				<port id="0" precision="FP32">
					<dim>1</dim>
					<dim>15</dim>
					<dim>20</dim>
					<dim>51</dim>
				</port>
				<port id="1" precision="I64">
					<dim>2</dim>
				</port>
			</input>
			<output>
				<port id="2" precision="FP32" names="272">
					<dim>1</dim>
					<dim>15300</dim>
				</port>
			</output>
		</layer>
		<layer id="92" name="MaxPool_25" type="MaxPool" version="opset8">
			<data strides="2, 2" dilations="1, 1" pads_begin="0, 0" pads_end="0, 0" kernel="2, 2" rounding_type="floor" auto_pad="explicit" index_element_type="i64" axis="0"/>
			<rt_info>
				<attribute name="fused_names" version="0" value="MaxPool_25"/>
			</rt_info>
			<input>
				<port id="0" precision="FP32">
					<dim>1</dim>
					<dim>64</dim>
					<dim>15</dim>
					<dim>20</dim>
				</port>
			</input>
			<output>
				<port id="1" precision="FP32" names="210">
					<dim>1</dim>
					<dim>64</dim>
					<dim>7</dim>
					<dim>10</dim>
				</port>
				<port id="2" precision="I64">
					<dim>1</dim>
					<dim>64</dim>
					<dim>7</dim>
					<dim>10</dim>
				</port>
			</output>
		</layer>
		<layer id="93" name="model4.conv1.conv1.weight" type="Const" version="opset1">
			<data element_type="f32" shape="64, 64, 1, 1" offset="123508" size="16384"/>
			<rt_info>
				<attribute name="fused_names" version="0" value="model4.conv1.conv1.weight"/>
			</rt_info>
			<output>
				<port id="0" precision="FP32" names="model4.conv1.conv1.weight">
					<dim>64</dim>
					<dim>64</dim>
					<dim>1</dim>
					<dim>1</dim>
				</port>
			</output>
		</layer>
		<layer id="94" name="Conv_26/WithoutBiases" type="Convolution" version="opset1">
			<data strides="1, 1" dilations="1, 1" pads_begin="0, 0" pads_end="0, 0" auto_pad="explicit"/>
			<rt_info>
				<attribute name="fused_names" version="0" value="Conv_26/WithoutBiases"/>
			</rt_info>
			<input>
				<port id="0" precision="FP32">
					<dim>1</dim>
					<dim>64</dim>
					<dim>7</dim>
					<dim>10</dim>
				</port>
				<port id="1" precision="FP32">
					<dim>64</dim>
					<dim>64</dim>
					<dim>1</dim>
					<dim>1</dim>
				</port>
			</input>
			<output>
				<port id="2" precision="FP32">
					<dim>1</dim>
					<dim>64</dim>
					<dim>7</dim>
					<dim>10</dim>
				</port>
			</output>
		</layer>
		<layer id="95" name="Reshape_1355" type="Const" version="opset1">
			<data element_type="f32" shape="1, 64, 1, 1" offset="139892" size="256"/>
			<output>
				<port id="0" precision="FP32">
					<dim>1</dim>
					<dim>64</dim>
					<dim>1</dim>
					<dim>1</dim>
				</port>
			</output>
		</layer>
		<layer id="96" name="Conv_26" type="Add" version="opset1">
			<data auto_broadcast="numpy"/>
			<rt_info>
				<attribute name="fused_names" version="0" value="Concat_1354, Conv_26, Reshape_1355"/>
			</rt_info>
			<input>
				<port id="0" precision="FP32">
					<dim>1</dim>
					<dim>64</dim>
					<dim>7</dim>
					<dim>10</dim>
				</port>
				<port id="1" precision="FP32">
					<dim>1</dim>
					<dim>64</dim>
					<dim>1</dim>
					<dim>1</dim>
				</port>
			</input>
			<output>
				<port id="2" precision="FP32" names="211">
					<dim>1</dim>
					<dim>64</dim>
					<dim>7</dim>
					<dim>10</dim>
				</port>
			</output>
		</layer>
		<layer id="97" name="Reshape_1390" type="Const" version="opset1">
			<data element_type="f32" shape="64, 1, 1, 3, 3" offset="140148" size="2304"/>
			<output>
				<port id="0" precision="FP32">
					<dim>64</dim>
					<dim>1</dim>
					<dim>1</dim>
					<dim>3</dim>
					<dim>3</dim>
				</port>
			</output>
		</layer>
		<layer id="98" name="Conv_27/WithoutBiases" type="GroupConvolution" version="opset1">
			<data strides="1, 1" pads_begin="1, 1" pads_end="1, 1" dilations="1, 1" auto_pad="explicit"/>
			<rt_info>
				<attribute name="fused_names" version="0" value="Conv_27/WithoutBiases, Reshape_1390"/>
			</rt_info>
			<input>
				<port id="0" precision="FP32">
					<dim>1</dim>
					<dim>64</dim>
					<dim>7</dim>
					<dim>10</dim>
				</port>
				<port id="1" precision="FP32">
					<dim>64</dim>
					<dim>1</dim>
					<dim>1</dim>
					<dim>3</dim>
					<dim>3</dim>
				</port>
			</input>
			<output>
				<port id="2" precision="FP32">
					<dim>1</dim>
					<dim>64</dim>
					<dim>7</dim>
					<dim>10</dim>
				</port>
			</output>
		</layer>
		<layer id="99" name="Reshape_1476" type="Const" version="opset1">
			<data element_type="f32" shape="1, 64, 1, 1" offset="142452" size="256"/>
			<output>
				<port id="0" precision="FP32">
					<dim>1</dim>
					<dim>64</dim>
					<dim>1</dim>
					<dim>1</dim>
				</port>
			</output>
		</layer>
		<layer id="100" name="Conv_27" type="Add" version="opset1">
			<data auto_broadcast="numpy"/>
			<rt_info>
				<attribute name="fused_names" version="0" value="Concat_1475, Conv_27, Reshape_1476"/>
			</rt_info>
			<input>
				<port id="0" precision="FP32">
					<dim>1</dim>
					<dim>64</dim>
					<dim>7</dim>
					<dim>10</dim>
				</port>
				<port id="1" precision="FP32">
					<dim>1</dim>
					<dim>64</dim>
					<dim>1</dim>
					<dim>1</dim>
				</port>
			</input>
			<output>
				<port id="2" precision="FP32" names="354">
					<dim>1</dim>
					<dim>64</dim>
					<dim>7</dim>
					<dim>10</dim>
				</port>
			</output>
		</layer>
		<layer id="101" name="Relu_28" type="ReLU" version="opset1">
			<rt_info>
				<attribute name="fused_names" version="0" value="Relu_28"/>
			</rt_info>
			<input>
				<port id="0" precision="FP32">
					<dim>1</dim>
					<dim>64</dim>
					<dim>7</dim>
					<dim>10</dim>
				</port>
			</input>
			<output>
				<port id="1" precision="FP32" names="214">
					<dim>1</dim>
					<dim>64</dim>
					<dim>7</dim>
					<dim>10</dim>
				</port>
			</output>
		</layer>
		<layer id="102" name="model4.conv2.conv1.weight" type="Const" version="opset1">
			<data element_type="f32" shape="64, 64, 1, 1" offset="142708" size="16384"/>
			<rt_info>
				<attribute name="fused_names" version="0" value="model4.conv2.conv1.weight"/>
			</rt_info>
			<output>
				<port id="0" precision="FP32" names="model4.conv2.conv1.weight">
					<dim>64</dim>
					<dim>64</dim>
					<dim>1</dim>
					<dim>1</dim>
				</port>
			</output>
		</layer>
		<layer id="103" name="Conv_29/WithoutBiases" type="Convolution" version="opset1">
			<data strides="1, 1" dilations="1, 1" pads_begin="0, 0" pads_end="0, 0" auto_pad="explicit"/>
			<rt_info>
				<attribute name="fused_names" version="0" value="Conv_29/WithoutBiases"/>
			</rt_info>
			<input>
				<port id="0" precision="FP32">
					<dim>1</dim>
					<dim>64</dim>
					<dim>7</dim>
					<dim>10</dim>
				</port>
				<port id="1" precision="FP32">
					<dim>64</dim>
					<dim>64</dim>
					<dim>1</dim>
					<dim>1</dim>
				</port>
			</input>
			<output>
				<port id="2" precision="FP32">
					<dim>1</dim>
					<dim>64</dim>
					<dim>7</dim>
					<dim>10</dim>
				</port>
			</output>
		</layer>
		<layer id="104" name="Reshape_1525" type="Const" version="opset1">
			<data element_type="f32" shape="1, 64, 1, 1" offset="159092" size="256"/>
			<output>
				<port id="0" precision="FP32">
					<dim>1</dim>
					<dim>64</dim>
					<dim>1</dim>
					<dim>1</dim>
				</port>
			</output>
		</layer>
		<layer id="105" name="Conv_29" type="Add" version="opset1">
			<data auto_broadcast="numpy"/>
			<rt_info>
				<attribute name="fused_names" version="0" value="Concat_1524, Conv_29, Reshape_1525"/>
			</rt_info>
			<input>
				<port id="0" precision="FP32">
					<dim>1</dim>
					<dim>64</dim>
					<dim>7</dim>
					<dim>10</dim>
				</port>
				<port id="1" precision="FP32">
					<dim>1</dim>
					<dim>64</dim>
					<dim>1</dim>
					<dim>1</dim>
				</port>
			</input>
			<output>
				<port id="2" precision="FP32" names="215">
					<dim>1</dim>
					<dim>64</dim>
					<dim>7</dim>
					<dim>10</dim>
				</port>
			</output>
		</layer>
		<layer id="106" name="Reshape_1560" type="Const" version="opset1">
			<data element_type="f32" shape="64, 1, 1, 3, 3" offset="159348" size="2304"/>
			<output>
				<port id="0" precision="FP32">
					<dim>64</dim>
					<dim>1</dim>
					<dim>1</dim>
					<dim>3</dim>
					<dim>3</dim>
				</port>
			</output>
		</layer>
		<layer id="107" name="Conv_30/WithoutBiases" type="GroupConvolution" version="opset1">
			<data strides="1, 1" pads_begin="1, 1" pads_end="1, 1" dilations="1, 1" auto_pad="explicit"/>
			<rt_info>
				<attribute name="fused_names" version="0" value="Conv_30/WithoutBiases, Reshape_1560"/>
			</rt_info>
			<input>
				<port id="0" precision="FP32">
					<dim>1</dim>
					<dim>64</dim>
					<dim>7</dim>
					<dim>10</dim>
				</port>
				<port id="1" precision="FP32">
					<dim>64</dim>
					<dim>1</dim>
					<dim>1</dim>
					<dim>3</dim>
					<dim>3</dim>
				</port>
			</input>
			<output>
				<port id="2" precision="FP32">
					<dim>1</dim>
					<dim>64</dim>
					<dim>7</dim>
					<dim>10</dim>
				</port>
			</output>
		</layer>
		<layer id="108" name="Reshape_1646" type="Const" version="opset1">
			<data element_type="f32" shape="1, 64, 1, 1" offset="161652" size="256"/>
			<output>
				<port id="0" precision="FP32">
					<dim>1</dim>
					<dim>64</dim>
					<dim>1</dim>
					<dim>1</dim>
				</port>
			</output>
		</layer>
		<layer id="109" name="Conv_30" type="Add" version="opset1">
			<data auto_broadcast="numpy"/>
			<rt_info>
				<attribute name="fused_names" version="0" value="Concat_1645, Conv_30, Reshape_1646"/>
			</rt_info>
			<input>
				<port id="0" precision="FP32">
					<dim>1</dim>
					<dim>64</dim>
					<dim>7</dim>
					<dim>10</dim>
				</port>
				<port id="1" precision="FP32">
					<dim>1</dim>
					<dim>64</dim>
					<dim>1</dim>
					<dim>1</dim>
				</port>
			</input>
			<output>
				<port id="2" precision="FP32" names="357">
					<dim>1</dim>
					<dim>64</dim>
					<dim>7</dim>
					<dim>10</dim>
				</port>
			</output>
		</layer>
		<layer id="110" name="Relu_31" type="ReLU" version="opset1">
			<rt_info>
				<attribute name="fused_names" version="0" value="Relu_31"/>
			</rt_info>
			<input>
				<port id="0" precision="FP32">
					<dim>1</dim>
					<dim>64</dim>
					<dim>7</dim>
					<dim>10</dim>
				</port>
			</input>
			<output>
				<port id="1" precision="FP32" names="218">
					<dim>1</dim>
					<dim>64</dim>
					<dim>7</dim>
					<dim>10</dim>
				</port>
			</output>
		</layer>
		<layer id="111" name="head.1.conv1.conv1.weight" type="Const" version="opset1">
			<data element_type="f32" shape="64, 64, 1, 1" offset="161908" size="16384"/>
			<rt_info>
				<attribute name="fused_names" version="0" value="head.1.conv1.conv1.weight"/>
			</rt_info>
			<output>
				<port id="0" precision="FP32" names="head.1.conv1.conv1.weight">
					<dim>64</dim>
					<dim>64</dim>
					<dim>1</dim>
					<dim>1</dim>
				</port>
			</output>
		</layer>
		<layer id="112" name="Conv_52/WithoutBiases" type="Convolution" version="opset1">
			<data strides="1, 1" dilations="1, 1" pads_begin="0, 0" pads_end="0, 0" auto_pad="explicit"/>
			<rt_info>
				<attribute name="fused_names" version="0" value="Conv_52/WithoutBiases"/>
			</rt_info>
			<input>
				<port id="0" precision="FP32">
					<dim>1</dim>
					<dim>64</dim>
					<dim>7</dim>
					<dim>10</dim>
				</port>
				<port id="1" precision="FP32">
					<dim>64</dim>
					<dim>64</dim>
					<dim>1</dim>
					<dim>1</dim>
				</port>
			</input>
			<output>
				<port id="2" precision="FP32">
					<dim>1</dim>
					<dim>64</dim>
					<dim>7</dim>
					<dim>10</dim>
				</port>
			</output>
		</layer>
		<layer id="113" name="Reshape_2718" type="Const" version="opset1">
			<data element_type="f32" shape="1, 64, 1, 1" offset="178292" size="256"/>
			<output>
				<port id="0" precision="FP32">
					<dim>1</dim>
					<dim>64</dim>
					<dim>1</dim>
					<dim>1</dim>
				</port>
			</output>
		</layer>
		<layer id="114" name="Conv_52" type="Add" version="opset1">
			<data auto_broadcast="numpy"/>
			<rt_info>
				<attribute name="fused_names" version="0" value="Concat_2717, Conv_52, Reshape_2718"/>
			</rt_info>
			<input>
				<port id="0" precision="FP32">
					<dim>1</dim>
					<dim>64</dim>
					<dim>7</dim>
					<dim>10</dim>
				</port>
				<port id="1" precision="FP32">
					<dim>1</dim>
					<dim>64</dim>
					<dim>1</dim>
					<dim>1</dim>
				</port>
			</input>
			<output>
				<port id="2" precision="FP32" names="244">
					<dim>1</dim>
					<dim>64</dim>
					<dim>7</dim>
					<dim>10</dim>
				</port>
			</output>
		</layer>
		<layer id="115" name="Reshape_2753" type="Const" version="opset1">
			<data element_type="f32" shape="64, 1, 1, 3, 3" offset="178548" size="2304"/>
			<output>
				<port id="0" precision="FP32">
					<dim>64</dim>
					<dim>1</dim>
					<dim>1</dim>
					<dim>3</dim>
					<dim>3</dim>
				</port>
			</output>
		</layer>
		<layer id="116" name="Conv_53/WithoutBiases" type="GroupConvolution" version="opset1">
			<data strides="1, 1" pads_begin="1, 1" pads_end="1, 1" dilations="1, 1" auto_pad="explicit"/>
			<rt_info>
				<attribute name="fused_names" version="0" value="Conv_53/WithoutBiases, Reshape_2753"/>
			</rt_info>
			<input>
				<port id="0" precision="FP32">
					<dim>1</dim>
					<dim>64</dim>
					<dim>7</dim>
					<dim>10</dim>
				</port>
				<port id="1" precision="FP32">
					<dim>64</dim>
					<dim>1</dim>
					<dim>1</dim>
					<dim>3</dim>
					<dim>3</dim>
				</port>
			</input>
			<output>
				<port id="2" precision="FP32">
					<dim>1</dim>
					<dim>64</dim>
					<dim>7</dim>
					<dim>10</dim>
				</port>
			</output>
		</layer>
		<layer id="117" name="Reshape_2839" type="Const" version="opset1">
			<data element_type="f32" shape="1, 64, 1, 1" offset="180852" size="256"/>
			<output>
				<port id="0" precision="FP32">
					<dim>1</dim>
					<dim>64</dim>
					<dim>1</dim>
					<dim>1</dim>
				</port>
			</output>
		</layer>
		<layer id="118" name="Conv_53" type="Add" version="opset1">
			<data auto_broadcast="numpy"/>
			<rt_info>
				<attribute name="fused_names" version="0" value="Concat_2838, Conv_53, Reshape_2839"/>
			</rt_info>
			<input>
				<port id="0" precision="FP32">
					<dim>1</dim>
					<dim>64</dim>
					<dim>7</dim>
					<dim>10</dim>
				</port>
				<port id="1" precision="FP32">
					<dim>1</dim>
					<dim>64</dim>
					<dim>1</dim>
					<dim>1</dim>
				</port>
			</input>
			<output>
				<port id="2" precision="FP32" names="375">
					<dim>1</dim>
					<dim>64</dim>
					<dim>7</dim>
					<dim>10</dim>
				</port>
			</output>
		</layer>
		<layer id="119" name="Relu_54" type="ReLU" version="opset1">
			<rt_info>
				<attribute name="fused_names" version="0" value="Relu_54"/>
			</rt_info>
			<input>
				<port id="0" precision="FP32">
					<dim>1</dim>
					<dim>64</dim>
					<dim>7</dim>
					<dim>10</dim>
				</port>
			</input>
			<output>
				<port id="1" precision="FP32" names="247">
					<dim>1</dim>
					<dim>64</dim>
					<dim>7</dim>
					<dim>10</dim>
				</port>
			</output>
		</layer>
		<layer id="120" name="head.1.conv2.conv1.weight" type="Const" version="opset1">
			<data element_type="f32" shape="34, 64, 1, 1" offset="181108" size="8704"/>
			<rt_info>
				<attribute name="fused_names" version="0" value="head.1.conv2.conv1.weight"/>
			</rt_info>
			<output>
				<port id="0" precision="FP32" names="head.1.conv2.conv1.weight">
					<dim>34</dim>
					<dim>64</dim>
					<dim>1</dim>
					<dim>1</dim>
				</port>
			</output>
		</layer>
		<layer id="121" name="Conv_55/WithoutBiases" type="Convolution" version="opset1">
			<data strides="1, 1" dilations="1, 1" pads_begin="0, 0" pads_end="0, 0" auto_pad="explicit"/>
			<rt_info>
				<attribute name="fused_names" version="0" value="Conv_55/WithoutBiases"/>
			</rt_info>
			<input>
				<port id="0" precision="FP32">
					<dim>1</dim>
					<dim>64</dim>
					<dim>7</dim>
					<dim>10</dim>
				</port>
				<port id="1" precision="FP32">
					<dim>34</dim>
					<dim>64</dim>
					<dim>1</dim>
					<dim>1</dim>
				</port>
			</input>
			<output>
				<port id="2" precision="FP32">
					<dim>1</dim>
					<dim>34</dim>
					<dim>7</dim>
					<dim>10</dim>
				</port>
			</output>
		</layer>
		<layer id="122" name="Reshape_2888" type="Const" version="opset1">
			<data element_type="f32" shape="1, 34, 1, 1" offset="189812" size="136"/>
			<output>
				<port id="0" precision="FP32">
					<dim>1</dim>
					<dim>34</dim>
					<dim>1</dim>
					<dim>1</dim>
				</port>
			</output>
		</layer>
		<layer id="123" name="Conv_55" type="Add" version="opset1">
			<data auto_broadcast="numpy"/>
			<rt_info>
				<attribute name="fused_names" version="0" value="Concat_2887, Conv_55, Reshape_2888"/>
			</rt_info>
			<input>
				<port id="0" precision="FP32">
					<dim>1</dim>
					<dim>34</dim>
					<dim>7</dim>
					<dim>10</dim>
				</port>
				<port id="1" precision="FP32">
					<dim>1</dim>
					<dim>34</dim>
					<dim>1</dim>
					<dim>1</dim>
				</port>
			</input>
			<output>
				<port id="2" precision="FP32" names="248">
					<dim>1</dim>
					<dim>34</dim>
					<dim>7</dim>
					<dim>10</dim>
				</port>
			</output>
		</layer>
		<layer id="124" name="Reshape_2923" type="Const" version="opset1">
			<data element_type="f32" shape="34, 1, 1, 3, 3" offset="189948" size="1224"/>
			<output>
				<port id="0" precision="FP32">
					<dim>34</dim>
					<dim>1</dim>
					<dim>1</dim>
					<dim>3</dim>
					<dim>3</dim>
				</port>
			</output>
		</layer>
		<layer id="125" name="Conv_56/WithoutBiases" type="GroupConvolution" version="opset1">
			<data strides="1, 1" pads_begin="1, 1" pads_end="1, 1" dilations="1, 1" auto_pad="explicit"/>
			<rt_info>
				<attribute name="fused_names" version="0" value="Conv_56/WithoutBiases, Reshape_2923"/>
			</rt_info>
			<input>
				<port id="0" precision="FP32">
					<dim>1</dim>
					<dim>34</dim>
					<dim>7</dim>
					<dim>10</dim>
				</port>
				<port id="1" precision="FP32">
					<dim>34</dim>
					<dim>1</dim>
					<dim>1</dim>
					<dim>3</dim>
					<dim>3</dim>
				</port>
			</input>
			<output>
				<port id="2" precision="FP32">
					<dim>1</dim>
					<dim>34</dim>
					<dim>7</dim>
					<dim>10</dim>
				</port>
			</output>
		</layer>
		<layer id="126" name="Reshape_3009" type="Const" version="opset1">
			<data element_type="f32" shape="1, 34, 1, 1" offset="191172" size="136"/>
			<output>
				<port id="0" precision="FP32">
					<dim>1</dim>
					<dim>34</dim>
					<dim>1</dim>
					<dim>1</dim>
				</port>
			</output>
		</layer>
		<layer id="127" name="Conv_56" type="Add" version="opset1">
			<data auto_broadcast="numpy"/>
			<rt_info>
				<attribute name="fused_names" version="0" value="Concat_3008, Conv_56, Reshape_3009"/>
			</rt_info>
			<input>
				<port id="0" precision="FP32">
					<dim>1</dim>
					<dim>34</dim>
					<dim>7</dim>
					<dim>10</dim>
				</port>
				<port id="1" precision="FP32">
					<dim>1</dim>
					<dim>34</dim>
					<dim>1</dim>
					<dim>1</dim>
				</port>
			</input>
			<output>
				<port id="2" precision="FP32" names="249">
					<dim>1</dim>
					<dim>34</dim>
					<dim>7</dim>
					<dim>10</dim>
				</port>
			</output>
		</layer>
		<layer id="128" name="Constant_3037" type="Const" version="opset1">
			<data element_type="i64" shape="4" offset="123460" size="32"/>
			<rt_info>
				<attribute name="fused_names" version="0" value="Constant_3037"/>
			</rt_info>
			<output>
				<port id="0" precision="I64">
					<dim>4</dim>
				</port>
			</output>
		</layer>
		<layer id="129" name="Transpose_57" type="Transpose" version="opset1">
			<rt_info>
				<attribute name="fused_names" version="0" value="Transpose_57"/>
			</rt_info>
			<input>
				<port id="0" precision="FP32">
					<dim>1</dim>
					<dim>34</dim>
					<dim>7</dim>
					<dim>10</dim>
				</port>
				<port id="1" precision="I64">
					<dim>4</dim>
				</port>
			</input>
			<output>
				<port id="2" precision="FP32" names="250">
					<dim>1</dim>
					<dim>7</dim>
					<dim>10</dim>
					<dim>34</dim>
				</port>
			</output>
		</layer>
		<layer id="130" name="Concat_80" type="Const" version="opset1">
			<data element_type="i64" shape="2" offset="123492" size="16"/>
			<rt_info>
				<attribute name="fused_names" version="0" value="385, Concat_80"/>
			</rt_info>
			<output>
				<port id="0" precision="I64">
					<dim>2</dim>
				</port>
			</output>
		</layer>
		<layer id="131" name="Reshape_81" type="Reshape" version="opset1">
			<data special_zero="true"/>
			<rt_info>
				<attribute name="fused_names" version="0" value="Reshape_81"/>
			</rt_info>
			<input>
				<port id="0" precision="FP32">
					<dim>1</dim>
					<dim>7</dim>
					<dim>10</dim>
					<dim>34</dim>
				</port>
				<port id="1" precision="I64">
					<dim>2</dim>
				</port>
			</input>
			<output>
				<port id="2" precision="FP32" names="280">
					<dim>1</dim>
					<dim>2380</dim>
				</port>
			</output>
		</layer>
		<layer id="132" name="MaxPool_32" type="MaxPool" version="opset8">
			<data strides="2, 2" dilations="1, 1" pads_begin="0, 0" pads_end="0, 0" kernel="2, 2" rounding_type="floor" auto_pad="explicit" index_element_type="i64" axis="0"/>
			<rt_info>
				<attribute name="fused_names" version="0" value="MaxPool_32"/>
			</rt_info>
			<input>
				<port id="0" precision="FP32">
					<dim>1</dim>
					<dim>64</dim>
					<dim>7</dim>
					<dim>10</dim>
				</port>
			</input>
			<output>
				<port id="1" precision="FP32" names="219">
					<dim>1</dim>
					<dim>64</dim>
					<dim>3</dim>
					<dim>5</dim>
				</port>
				<port id="2" precision="I64">
					<dim>1</dim>
					<dim>64</dim>
					<dim>3</dim>
					<dim>5</dim>
				</port>
			</output>
		</layer>
		<layer id="133" name="model5.conv1.conv1.weight" type="Const" version="opset1">
			<data element_type="f32" shape="64, 64, 1, 1" offset="191308" size="16384"/>
			<rt_info>
				<attribute name="fused_names" version="0" value="model5.conv1.conv1.weight"/>
			</rt_info>
			<output>
				<port id="0" precision="FP32" names="model5.conv1.conv1.weight">
					<dim>64</dim>
					<dim>64</dim>
					<dim>1</dim>
					<dim>1</dim>
				</port>
			</output>
		</layer>
		<layer id="134" name="Conv_33/WithoutBiases" type="Convolution" version="opset1">
			<data strides="1, 1" dilations="1, 1" pads_begin="0, 0" pads_end="0, 0" auto_pad="explicit"/>
			<rt_info>
				<attribute name="fused_names" version="0" value="Conv_33/WithoutBiases"/>
			</rt_info>
			<input>
				<port id="0" precision="FP32">
					<dim>1</dim>
					<dim>64</dim>
					<dim>3</dim>
					<dim>5</dim>
				</port>
				<port id="1" precision="FP32">
					<dim>64</dim>
					<dim>64</dim>
					<dim>1</dim>
					<dim>1</dim>
				</port>
			</input>
			<output>
				<port id="2" precision="FP32">
					<dim>1</dim>
					<dim>64</dim>
					<dim>3</dim>
					<dim>5</dim>
				</port>
			</output>
		</layer>
		<layer id="135" name="Reshape_1696" type="Const" version="opset1">
			<data element_type="f32" shape="1, 64, 1, 1" offset="207692" size="256"/>
			<output>
				<port id="0" precision="FP32">
					<dim>1</dim>
					<dim>64</dim>
					<dim>1</dim>
					<dim>1</dim>
				</port>
			</output>
		</layer>
		<layer id="136" name="Conv_33" type="Add" version="opset1">
			<data auto_broadcast="numpy"/>
			<rt_info>
				<attribute name="fused_names" version="0" value="Concat_1695, Conv_33, Reshape_1696"/>
			</rt_info>
			<input>
				<port id="0" precision="FP32">
					<dim>1</dim>
					<dim>64</dim>
					<dim>3</dim>
					<dim>5</dim>
				</port>
				<port id="1" precision="FP32">
					<dim>1</dim>
					<dim>64</dim>
					<dim>1</dim>
					<dim>1</dim>
				</port>
			</input>
			<output>
				<port id="2" precision="FP32" names="220">
					<dim>1</dim>
					<dim>64</dim>
					<dim>3</dim>
					<dim>5</dim>
				</port>
			</output>
		</layer>
		<layer id="137" name="Reshape_1731" type="Const" version="opset1">
			<data element_type="f32" shape="64, 1, 1, 3, 3" offset="207948" size="2304"/>
			<output>
				<port id="0" precision="FP32">
					<dim>64</dim>
					<dim>1</dim>
					<dim>1</dim>
					<dim>3</dim>
					<dim>3</dim>
				</port>
			</output>
		</layer>
		<layer id="138" name="Conv_34/WithoutBiases" type="GroupConvolution" version="opset1">
			<data strides="1, 1" pads_begin="1, 1" pads_end="1, 1" dilations="1, 1" auto_pad="explicit"/>
			<rt_info>
				<attribute name="fused_names" version="0" value="Conv_34/WithoutBiases, Reshape_1731"/>
			</rt_info>
			<input>
				<port id="0" precision="FP32">
					<dim>1</dim>
					<dim>64</dim>
					<dim>3</dim>
					<dim>5</dim>
				</port>
				<port id="1" precision="FP32">
					<dim>64</dim>
					<dim>1</dim>
					<dim>1</dim>
					<dim>3</dim>
					<dim>3</dim>
				</port>
			</input>
			<output>
				<port id="2" precision="FP32">
					<dim>1</dim>
					<dim>64</dim>
					<dim>3</dim>
					<dim>5</dim>
				</port>
			</output>
		</layer>
		<layer id="139" name="Reshape_1817" type="Const" version="opset1">
			<data element_type="f32" shape="1, 64, 1, 1" offset="210252" size="256"/>
			<output>
				<port id="0" precision="FP32">
					<dim>1</dim>
					<dim>64</dim>
					<dim>1</dim>
					<dim>1</dim>
				</port>
			</output>
		</layer>
		<layer id="140" name="Conv_34" type="Add" version="opset1">
			<data auto_broadcast="numpy"/>
			<rt_info>
				<attribute name="fused_names" version="0" value="Concat_1816, Conv_34, Reshape_1817"/>
			</rt_info>
			<input>
				<port id="0" precision="FP32">
					<dim>1</dim>
					<dim>64</dim>
					<dim>3</dim>
					<dim>5</dim>
				</port>
				<port id="1" precision="FP32">
					<dim>1</dim>
					<dim>64</dim>
					<dim>1</dim>
					<dim>1</dim>
				</port>
			</input>
			<output>
				<port id="2" precision="FP32" names="360">
					<dim>1</dim>
					<dim>64</dim>
					<dim>3</dim>
					<dim>5</dim>
				</port>
			</output>
		</layer>
		<layer id="141" name="Relu_35" type="ReLU" version="opset1">
			<rt_info>
				<attribute name="fused_names" version="0" value="Relu_35"/>
			</rt_info>
			<input>
				<port id="0" precision="FP32">
					<dim>1</dim>
					<dim>64</dim>
					<dim>3</dim>
					<dim>5</dim>
				</port>
			</input>
			<output>
				<port id="1" precision="FP32" names="223">
					<dim>1</dim>
					<dim>64</dim>
					<dim>3</dim>
					<dim>5</dim>
				</port>
			</output>
		</layer>
		<layer id="142" name="model5.conv2.conv1.weight" type="Const" version="opset1">
			<data element_type="f32" shape="64, 64, 1, 1" offset="210508" size="16384"/>
			<rt_info>
				<attribute name="fused_names" version="0" value="model5.conv2.conv1.weight"/>
			</rt_info>
			<output>
				<port id="0" precision="FP32" names="model5.conv2.conv1.weight">
					<dim>64</dim>
					<dim>64</dim>
					<dim>1</dim>
					<dim>1</dim>
				</port>
			</output>
		</layer>
		<layer id="143" name="Conv_36/WithoutBiases" type="Convolution" version="opset1">
			<data strides="1, 1" dilations="1, 1" pads_begin="0, 0" pads_end="0, 0" auto_pad="explicit"/>
			<rt_info>
				<attribute name="fused_names" version="0" value="Conv_36/WithoutBiases"/>
			</rt_info>
			<input>
				<port id="0" precision="FP32">
					<dim>1</dim>
					<dim>64</dim>
					<dim>3</dim>
					<dim>5</dim>
				</port>
				<port id="1" precision="FP32">
					<dim>64</dim>
					<dim>64</dim>
					<dim>1</dim>
					<dim>1</dim>
				</port>
			</input>
			<output>
				<port id="2" precision="FP32">
					<dim>1</dim>
					<dim>64</dim>
					<dim>3</dim>
					<dim>5</dim>
				</port>
			</output>
		</layer>
		<layer id="144" name="Reshape_1866" type="Const" version="opset1">
			<data element_type="f32" shape="1, 64, 1, 1" offset="226892" size="256"/>
			<output>
				<port id="0" precision="FP32">
					<dim>1</dim>
					<dim>64</dim>
					<dim>1</dim>
					<dim>1</dim>
				</port>
			</output>
		</layer>
		<layer id="145" name="Conv_36" type="Add" version="opset1">
			<data auto_broadcast="numpy"/>
			<rt_info>
				<attribute name="fused_names" version="0" value="Concat_1865, Conv_36, Reshape_1866"/>
			</rt_info>
			<input>
				<port id="0" precision="FP32">
					<dim>1</dim>
					<dim>64</dim>
					<dim>3</dim>
					<dim>5</dim>
				</port>
				<port id="1" precision="FP32">
					<dim>1</dim>
					<dim>64</dim>
					<dim>1</dim>
					<dim>1</dim>
				</port>
			</input>
			<output>
				<port id="2" precision="FP32" names="224">
					<dim>1</dim>
					<dim>64</dim>
					<dim>3</dim>
					<dim>5</dim>
				</port>
			</output>
		</layer>
		<layer id="146" name="Reshape_1901" type="Const" version="opset1">
			<data element_type="f32" shape="64, 1, 1, 3, 3" offset="227148" size="2304"/>
			<output>
				<port id="0" precision="FP32">
					<dim>64</dim>
					<dim>1</dim>
					<dim>1</dim>
					<dim>3</dim>
					<dim>3</dim>
				</port>
			</output>
		</layer>
		<layer id="147" name="Conv_37/WithoutBiases" type="GroupConvolution" version="opset1">
			<data strides="1, 1" pads_begin="1, 1" pads_end="1, 1" dilations="1, 1" auto_pad="explicit"/>
			<rt_info>
				<attribute name="fused_names" version="0" value="Conv_37/WithoutBiases, Reshape_1901"/>
			</rt_info>
			<input>
				<port id="0" precision="FP32">
					<dim>1</dim>
					<dim>64</dim>
					<dim>3</dim>
					<dim>5</dim>
				</port>
				<port id="1" precision="FP32">
					<dim>64</dim>
					<dim>1</dim>
					<dim>1</dim>
					<dim>3</dim>
					<dim>3</dim>
				</port>
			</input>
			<output>
				<port id="2" precision="FP32">
					<dim>1</dim>
					<dim>64</dim>
					<dim>3</dim>
					<dim>5</dim>
				</port>
			</output>
		</layer>
		<layer id="148" name="Reshape_1987" type="Const" version="opset1">
			<data element_type="f32" shape="1, 64, 1, 1" offset="229452" size="256"/>
			<output>
				<port id="0" precision="FP32">
					<dim>1</dim>
					<dim>64</dim>
					<dim>1</dim>
					<dim>1</dim>
				</port>
			</output>
		</layer>
		<layer id="149" name="Conv_37" type="Add" version="opset1">
			<data auto_broadcast="numpy"/>
			<rt_info>
				<attribute name="fused_names" version="0" value="Concat_1986, Conv_37, Reshape_1987"/>
			</rt_info>
			<input>
				<port id="0" precision="FP32">
					<dim>1</dim>
					<dim>64</dim>
					<dim>3</dim>
					<dim>5</dim>
				</port>
				<port id="1" precision="FP32">
					<dim>1</dim>
					<dim>64</dim>
					<dim>1</dim>
					<dim>1</dim>
				</port>
			</input>
			<output>
				<port id="2" precision="FP32" names="363">
					<dim>1</dim>
					<dim>64</dim>
					<dim>3</dim>
					<dim>5</dim>
				</port>
			</output>
		</layer>
		<layer id="150" name="Relu_38" type="ReLU" version="opset1">
			<rt_info>
				<attribute name="fused_names" version="0" value="Relu_38"/>
			</rt_info>
			<input>
				<port id="0" precision="FP32">
					<dim>1</dim>
					<dim>64</dim>
					<dim>3</dim>
					<dim>5</dim>
				</port>
			</input>
			<output>
				<port id="1" precision="FP32" names="227">
					<dim>1</dim>
					<dim>64</dim>
					<dim>3</dim>
					<dim>5</dim>
				</port>
			</output>
		</layer>
		<layer id="151" name="head.2.conv1.conv1.weight" type="Const" version="opset1">
			<data element_type="f32" shape="64, 64, 1, 1" offset="229708" size="16384"/>
			<rt_info>
				<attribute name="fused_names" version="0" value="head.2.conv1.conv1.weight"/>
			</rt_info>
			<output>
				<port id="0" precision="FP32" names="head.2.conv1.conv1.weight">
					<dim>64</dim>
					<dim>64</dim>
					<dim>1</dim>
					<dim>1</dim>
				</port>
			</output>
		</layer>
		<layer id="152" name="Conv_58/WithoutBiases" type="Convolution" version="opset1">
			<data strides="1, 1" dilations="1, 1" pads_begin="0, 0" pads_end="0, 0" auto_pad="explicit"/>
			<rt_info>
				<attribute name="fused_names" version="0" value="Conv_58/WithoutBiases"/>
			</rt_info>
			<input>
				<port id="0" precision="FP32">
					<dim>1</dim>
					<dim>64</dim>
					<dim>3</dim>
					<dim>5</dim>
				</port>
				<port id="1" precision="FP32">
					<dim>64</dim>
					<dim>64</dim>
					<dim>1</dim>
					<dim>1</dim>
				</port>
			</input>
			<output>
				<port id="2" precision="FP32">
					<dim>1</dim>
					<dim>64</dim>
					<dim>3</dim>
					<dim>5</dim>
				</port>
			</output>
		</layer>
		<layer id="153" name="Reshape_3059" type="Const" version="opset1">
			<data element_type="f32" shape="1, 64, 1, 1" offset="246092" size="256"/>
			<output>
				<port id="0" precision="FP32">
					<dim>1</dim>
					<dim>64</dim>
					<dim>1</dim>
					<dim>1</dim>
				</port>
			</output>
		</layer>
		<layer id="154" name="Conv_58" type="Add" version="opset1">
			<data auto_broadcast="numpy"/>
			<rt_info>
				<attribute name="fused_names" version="0" value="Concat_3058, Conv_58, Reshape_3059"/>
			</rt_info>
			<input>
				<port id="0" precision="FP32">
					<dim>1</dim>
					<dim>64</dim>
					<dim>3</dim>
					<dim>5</dim>
				</port>
				<port id="1" precision="FP32">
					<dim>1</dim>
					<dim>64</dim>
					<dim>1</dim>
					<dim>1</dim>
				</port>
			</input>
			<output>
				<port id="2" precision="FP32" names="251">
					<dim>1</dim>
					<dim>64</dim>
					<dim>3</dim>
					<dim>5</dim>
				</port>
			</output>
		</layer>
		<layer id="155" name="Reshape_3094" type="Const" version="opset1">
			<data element_type="f32" shape="64, 1, 1, 3, 3" offset="246348" size="2304"/>
			<output>
				<port id="0" precision="FP32">
					<dim>64</dim>
					<dim>1</dim>
					<dim>1</dim>
					<dim>3</dim>
					<dim>3</dim>
				</port>
			</output>
		</layer>
		<layer id="156" name="Conv_59/WithoutBiases" type="GroupConvolution" version="opset1">
			<data strides="1, 1" pads_begin="1, 1" pads_end="1, 1" dilations="1, 1" auto_pad="explicit"/>
			<rt_info>
				<attribute name="fused_names" version="0" value="Conv_59/WithoutBiases, Reshape_3094"/>
			</rt_info>
			<input>
				<port id="0" precision="FP32">
					<dim>1</dim>
					<dim>64</dim>
					<dim>3</dim>
					<dim>5</dim>
				</port>
				<port id="1" precision="FP32">
					<dim>64</dim>
					<dim>1</dim>
					<dim>1</dim>
					<dim>3</dim>
					<dim>3</dim>
				</port>
			</input>
			<output>
				<port id="2" precision="FP32">
					<dim>1</dim>
					<dim>64</dim>
					<dim>3</dim>
					<dim>5</dim>
				</port>
			</output>
		</layer>
		<layer id="157" name="Reshape_3180" type="Const" version="opset1">
			<data element_type="f32" shape="1, 64, 1, 1" offset="248652" size="256"/>
			<output>
				<port id="0" precision="FP32">
					<dim>1</dim>
					<dim>64</dim>
					<dim>1</dim>
					<dim>1</dim>
				</port>
			</output>
		</layer>
		<layer id="158" name="Conv_59" type="Add" version="opset1">
			<data auto_broadcast="numpy"/>
			<rt_info>
				<attribute name="fused_names" version="0" value="Concat_3179, Conv_59, Reshape_3180"/>
			</rt_info>
			<input>
				<port id="0" precision="FP32">
					<dim>1</dim>
					<dim>64</dim>
					<dim>3</dim>
					<dim>5</dim>
				</port>
				<port id="1" precision="FP32">
					<dim>1</dim>
					<dim>64</dim>
					<dim>1</dim>
					<dim>1</dim>
				</port>
			</input>
			<output>
				<port id="2" precision="FP32" names="378">
					<dim>1</dim>
					<dim>64</dim>
					<dim>3</dim>
					<dim>5</dim>
				</port>
			</output>
		</layer>
		<layer id="159" name="Relu_60" type="ReLU" version="opset1">
			<rt_info>
				<attribute name="fused_names" version="0" value="Relu_60"/>
			</rt_info>
			<input>
				<port id="0" precision="FP32">
					<dim>1</dim>
					<dim>64</dim>
					<dim>3</dim>
					<dim>5</dim>
				</port>
			</input>
			<output>
				<port id="1" precision="FP32" names="254">
					<dim>1</dim>
					<dim>64</dim>
					<dim>3</dim>
					<dim>5</dim>
				</port>
			</output>
		</layer>
		<layer id="160" name="head.2.conv2.conv1.weight" type="Const" version="opset1">
			<data element_type="f32" shape="34, 64, 1, 1" offset="248908" size="8704"/>
			<rt_info>
				<attribute name="fused_names" version="0" value="head.2.conv2.conv1.weight"/>
			</rt_info>
			<output>
				<port id="0" precision="FP32" names="head.2.conv2.conv1.weight">
					<dim>34</dim>
					<dim>64</dim>
					<dim>1</dim>
					<dim>1</dim>
				</port>
			</output>
		</layer>
		<layer id="161" name="Conv_61/WithoutBiases" type="Convolution" version="opset1">
			<data strides="1, 1" dilations="1, 1" pads_begin="0, 0" pads_end="0, 0" auto_pad="explicit"/>
			<rt_info>
				<attribute name="fused_names" version="0" value="Conv_61/WithoutBiases"/>
			</rt_info>
			<input>
				<port id="0" precision="FP32">
					<dim>1</dim>
					<dim>64</dim>
					<dim>3</dim>
					<dim>5</dim>
				</port>
				<port id="1" precision="FP32">
					<dim>34</dim>
					<dim>64</dim>
					<dim>1</dim>
					<dim>1</dim>
				</port>
			</input>
			<output>
				<port id="2" precision="FP32">
					<dim>1</dim>
					<dim>34</dim>
					<dim>3</dim>
					<dim>5</dim>
				</port>
			</output>
		</layer>
		<layer id="162" name="Reshape_3229" type="Const" version="opset1">
			<data element_type="f32" shape="1, 34, 1, 1" offset="257612" size="136"/>
			<output>
				<port id="0" precision="FP32">
					<dim>1</dim>
					<dim>34</dim>
					<dim>1</dim>
					<dim>1</dim>
				</port>
			</output>
		</layer>
		<layer id="163" name="Conv_61" type="Add" version="opset1">
			<data auto_broadcast="numpy"/>
			<rt_info>
				<attribute name="fused_names" version="0" value="Concat_3228, Conv_61, Reshape_3229"/>
			</rt_info>
			<input>
				<port id="0" precision="FP32">
					<dim>1</dim>
					<dim>34</dim>
					<dim>3</dim>
					<dim>5</dim>
				</port>
				<port id="1" precision="FP32">
					<dim>1</dim>
					<dim>34</dim>
					<dim>1</dim>
					<dim>1</dim>
				</port>
			</input>
			<output>
				<port id="2" precision="FP32" names="255">
					<dim>1</dim>
					<dim>34</dim>
					<dim>3</dim>
					<dim>5</dim>
				</port>
			</output>
		</layer>
		<layer id="164" name="Reshape_3264" type="Const" version="opset1">
			<data element_type="f32" shape="34, 1, 1, 3, 3" offset="257748" size="1224"/>
			<output>
				<port id="0" precision="FP32">
					<dim>34</dim>
					<dim>1</dim>
					<dim>1</dim>
					<dim>3</dim>
					<dim>3</dim>
				</port>
			</output>
		</layer>
		<layer id="165" name="Conv_62/WithoutBiases" type="GroupConvolution" version="opset1">
			<data strides="1, 1" pads_begin="1, 1" pads_end="1, 1" dilations="1, 1" auto_pad="explicit"/>
			<rt_info>
				<attribute name="fused_names" version="0" value="Conv_62/WithoutBiases, Reshape_3264"/>
			</rt_info>
			<input>
				<port id="0" precision="FP32">
					<dim>1</dim>
					<dim>34</dim>
					<dim>3</dim>
					<dim>5</dim>
				</port>
				<port id="1" precision="FP32">
					<dim>34</dim>
					<dim>1</dim>
					<dim>1</dim>
					<dim>3</dim>
					<dim>3</dim>
				</port>
			</input>
			<output>
				<port id="2" precision="FP32">
					<dim>1</dim>
					<dim>34</dim>
					<dim>3</dim>
					<dim>5</dim>
				</port>
			</output>
		</layer>
		<layer id="166" name="Reshape_3350" type="Const" version="opset1">
			<data element_type="f32" shape="1, 34, 1, 1" offset="258972" size="136"/>
			<output>
				<port id="0" precision="FP32">
					<dim>1</dim>
					<dim>34</dim>
					<dim>1</dim>
					<dim>1</dim>
				</port>
			</output>
		</layer>
		<layer id="167" name="Conv_62" type="Add" version="opset1">
			<data auto_broadcast="numpy"/>
			<rt_info>
				<attribute name="fused_names" version="0" value="Concat_3349, Conv_62, Reshape_3350"/>
			</rt_info>
			<input>
				<port id="0" precision="FP32">
					<dim>1</dim>
					<dim>34</dim>
					<dim>3</dim>
					<dim>5</dim>
				</port>
				<port id="1" precision="FP32">
					<dim>1</dim>
					<dim>34</dim>
					<dim>1</dim>
					<dim>1</dim>
				</port>
			</input>
			<output>
				<port id="2" precision="FP32" names="256">
					<dim>1</dim>
					<dim>34</dim>
					<dim>3</dim>
					<dim>5</dim>
				</port>
			</output>
		</layer>
		<layer id="168" name="Constant_3378" type="Const" version="opset1">
			<data element_type="i64" shape="4" offset="123460" size="32"/>
			<rt_info>
				<attribute name="fused_names" version="0" value="Constant_3378"/>
			</rt_info>
			<output>
				<port id="0" precision="I64">
					<dim>4</dim>
				</port>
			</output>
		</layer>
		<layer id="169" name="Transpose_63" type="Transpose" version="opset1">
			<rt_info>
				<attribute name="fused_names" version="0" value="Transpose_63"/>
			</rt_info>
			<input>
				<port id="0" precision="FP32">
					<dim>1</dim>
					<dim>34</dim>
					<dim>3</dim>
					<dim>5</dim>
				</port>
				<port id="1" precision="I64">
					<dim>4</dim>
				</port>
			</input>
			<output>
				<port id="2" precision="FP32" names="257">
					<dim>1</dim>
					<dim>3</dim>
					<dim>5</dim>
					<dim>34</dim>
				</port>
			</output>
		</layer>
		<layer id="170" name="Concat_86" type="Const" version="opset1">
			<data element_type="i64" shape="2" offset="123492" size="16"/>
			<rt_info>
				<attribute name="fused_names" version="0" value="386, Concat_86"/>
			</rt_info>
			<output>
				<port id="0" precision="I64">
					<dim>2</dim>
				</port>
			</output>
		</layer>
		<layer id="171" name="Reshape_87" type="Reshape" version="opset1">
			<data special_zero="true"/>
			<rt_info>
				<attribute name="fused_names" version="0" value="Reshape_87"/>
			</rt_info>
			<input>
				<port id="0" precision="FP32">
					<dim>1</dim>
					<dim>3</dim>
					<dim>5</dim>
					<dim>34</dim>
				</port>
				<port id="1" precision="I64">
					<dim>2</dim>
				</port>
			</input>
			<output>
				<port id="2" precision="FP32" names="288">
					<dim>1</dim>
					<dim>510</dim>
				</port>
			</output>
		</layer>
		<layer id="172" name="MaxPool_39" type="MaxPool" version="opset8">
			<data strides="2, 2" dilations="1, 1" pads_begin="0, 0" pads_end="0, 0" kernel="2, 2" rounding_type="floor" auto_pad="explicit" index_element_type="i64" axis="0"/>
			<rt_info>
				<attribute name="fused_names" version="0" value="MaxPool_39"/>
			</rt_info>
			<input>
				<port id="0" precision="FP32">
					<dim>1</dim>
					<dim>64</dim>
					<dim>3</dim>
					<dim>5</dim>
				</port>
			</input>
			<output>
				<port id="1" precision="FP32" names="228">
					<dim>1</dim>
					<dim>64</dim>
					<dim>1</dim>
					<dim>2</dim>
				</port>
				<port id="2" precision="I64">
					<dim>1</dim>
					<dim>64</dim>
					<dim>1</dim>
					<dim>2</dim>
				</port>
			</output>
		</layer>
		<layer id="173" name="model6.conv1.conv1.weight" type="Const" version="opset1">
			<data element_type="f32" shape="64, 64, 1, 1" offset="259108" size="16384"/>
			<rt_info>
				<attribute name="fused_names" version="0" value="model6.conv1.conv1.weight"/>
			</rt_info>
			<output>
				<port id="0" precision="FP32" names="model6.conv1.conv1.weight">
					<dim>64</dim>
					<dim>64</dim>
					<dim>1</dim>
					<dim>1</dim>
				</port>
			</output>
		</layer>
		<layer id="174" name="Conv_40/WithoutBiases" type="Convolution" version="opset1">
			<data strides="1, 1" dilations="1, 1" pads_begin="0, 0" pads_end="0, 0" auto_pad="explicit"/>
			<rt_info>
				<attribute name="fused_names" version="0" value="Conv_40/WithoutBiases"/>
			</rt_info>
			<input>
				<port id="0" precision="FP32">
					<dim>1</dim>
					<dim>64</dim>
					<dim>1</dim>
					<dim>2</dim>
				</port>
				<port id="1" precision="FP32">
					<dim>64</dim>
					<dim>64</dim>
					<dim>1</dim>
					<dim>1</dim>
				</port>
			</input>
			<output>
				<port id="2" precision="FP32">
					<dim>1</dim>
					<dim>64</dim>
					<dim>1</dim>
					<dim>2</dim>
				</port>
			</output>
		</layer>
		<layer id="175" name="Reshape_2037" type="Const" version="opset1">
			<data element_type="f32" shape="1, 64, 1, 1" offset="275492" size="256"/>
			<output>
				<port id="0" precision="FP32">
					<dim>1</dim>
					<dim>64</dim>
					<dim>1</dim>
					<dim>1</dim>
				</port>
			</output>
		</layer>
		<layer id="176" name="Conv_40" type="Add" version="opset1">
			<data auto_broadcast="numpy"/>
			<rt_info>
				<attribute name="fused_names" version="0" value="Concat_2036, Conv_40, Reshape_2037"/>
			</rt_info>
			<input>
				<port id="0" precision="FP32">
					<dim>1</dim>
					<dim>64</dim>
					<dim>1</dim>
					<dim>2</dim>
				</port>
				<port id="1" precision="FP32">
					<dim>1</dim>
					<dim>64</dim>
					<dim>1</dim>
					<dim>1</dim>
				</port>
			</input>
			<output>
				<port id="2" precision="FP32" names="229">
					<dim>1</dim>
					<dim>64</dim>
					<dim>1</dim>
					<dim>2</dim>
				</port>
			</output>
		</layer>
		<layer id="177" name="Reshape_2072" type="Const" version="opset1">
			<data element_type="f32" shape="64, 1, 1, 3, 3" offset="275748" size="2304"/>
			<output>
				<port id="0" precision="FP32">
					<dim>64</dim>
					<dim>1</dim>
					<dim>1</dim>
					<dim>3</dim>
					<dim>3</dim>
				</port>
			</output>
		</layer>
		<layer id="178" name="Conv_41/WithoutBiases" type="GroupConvolution" version="opset1">
			<data strides="1, 1" pads_begin="1, 1" pads_end="1, 1" dilations="1, 1" auto_pad="explicit"/>
			<rt_info>
				<attribute name="fused_names" version="0" value="Conv_41/WithoutBiases, Reshape_2072"/>
			</rt_info>
			<input>
				<port id="0" precision="FP32">
					<dim>1</dim>
					<dim>64</dim>
					<dim>1</dim>
					<dim>2</dim>
				</port>
				<port id="1" precision="FP32">
					<dim>64</dim>
					<dim>1</dim>
					<dim>1</dim>
					<dim>3</dim>
					<dim>3</dim>
				</port>
			</input>
			<output>
				<port id="2" precision="FP32">
					<dim>1</dim>
					<dim>64</dim>
					<dim>1</dim>
					<dim>2</dim>
				</port>
			</output>
		</layer>
		<layer id="179" name="Reshape_2158" type="Const" version="opset1">
			<data element_type="f32" shape="1, 64, 1, 1" offset="278052" size="256"/>
			<output>
				<port id="0" precision="FP32">
					<dim>1</dim>
					<dim>64</dim>
					<dim>1</dim>
					<dim>1</dim>
				</port>
			</output>
		</layer>
		<layer id="180" name="Conv_41" type="Add" version="opset1">
			<data auto_broadcast="numpy"/>
			<rt_info>
				<attribute name="fused_names" version="0" value="Concat_2157, Conv_41, Reshape_2158"/>
			</rt_info>
			<input>
				<port id="0" precision="FP32">
					<dim>1</dim>
					<dim>64</dim>
					<dim>1</dim>
					<dim>2</dim>
				</port>
				<port id="1" precision="FP32">
					<dim>1</dim>
					<dim>64</dim>
					<dim>1</dim>
					<dim>1</dim>
				</port>
			</input>
			<output>
				<port id="2" precision="FP32" names="366">
					<dim>1</dim>
					<dim>64</dim>
					<dim>1</dim>
					<dim>2</dim>
				</port>
			</output>
		</layer>
		<layer id="181" name="Relu_42" type="ReLU" version="opset1">
			<rt_info>
				<attribute name="fused_names" version="0" value="Relu_42"/>
			</rt_info>
			<input>
				<port id="0" precision="FP32">
					<dim>1</dim>
					<dim>64</dim>
					<dim>1</dim>
					<dim>2</dim>
				</port>
			</input>
			<output>
				<port id="1" precision="FP32" names="232">
					<dim>1</dim>
					<dim>64</dim>
					<dim>1</dim>
					<dim>2</dim>
				</port>
			</output>
		</layer>
		<layer id="182" name="model6.conv2.conv1.weight" type="Const" version="opset1">
			<data element_type="f32" shape="64, 64, 1, 1" offset="278308" size="16384"/>
			<rt_info>
				<attribute name="fused_names" version="0" value="model6.conv2.conv1.weight"/>
			</rt_info>
			<output>
				<port id="0" precision="FP32" names="model6.conv2.conv1.weight">
					<dim>64</dim>
					<dim>64</dim>
					<dim>1</dim>
					<dim>1</dim>
				</port>
			</output>
		</layer>
		<layer id="183" name="Conv_43/WithoutBiases" type="Convolution" version="opset1">
			<data strides="1, 1" dilations="1, 1" pads_begin="0, 0" pads_end="0, 0" auto_pad="explicit"/>
			<rt_info>
				<attribute name="fused_names" version="0" value="Conv_43/WithoutBiases"/>
			</rt_info>
			<input>
				<port id="0" precision="FP32">
					<dim>1</dim>
					<dim>64</dim>
					<dim>1</dim>
					<dim>2</dim>
				</port>
				<port id="1" precision="FP32">
					<dim>64</dim>
					<dim>64</dim>
					<dim>1</dim>
					<dim>1</dim>
				</port>
			</input>
			<output>
				<port id="2" precision="FP32">
					<dim>1</dim>
					<dim>64</dim>
					<dim>1</dim>
					<dim>2</dim>
				</port>
			</output>
		</layer>
		<layer id="184" name="Reshape_2207" type="Const" version="opset1">
			<data element_type="f32" shape="1, 64, 1, 1" offset="294692" size="256"/>
			<output>
				<port id="0" precision="FP32">
					<dim>1</dim>
					<dim>64</dim>
					<dim>1</dim>
					<dim>1</dim>
				</port>
			</output>
		</layer>
		<layer id="185" name="Conv_43" type="Add" version="opset1">
			<data auto_broadcast="numpy"/>
			<rt_info>
				<attribute name="fused_names" version="0" value="Concat_2206, Conv_43, Reshape_2207"/>
			</rt_info>
			<input>
				<port id="0" precision="FP32">
					<dim>1</dim>
					<dim>64</dim>
					<dim>1</dim>
					<dim>2</dim>
				</port>
				<port id="1" precision="FP32">
					<dim>1</dim>
					<dim>64</dim>
					<dim>1</dim>
					<dim>1</dim>
				</port>
			</input>
			<output>
				<port id="2" precision="FP32" names="233">
					<dim>1</dim>
					<dim>64</dim>
					<dim>1</dim>
					<dim>2</dim>
				</port>
			</output>
		</layer>
		<layer id="186" name="Reshape_2242" type="Const" version="opset1">
			<data element_type="f32" shape="64, 1, 1, 3, 3" offset="294948" size="2304"/>
			<output>
				<port id="0" precision="FP32">
					<dim>64</dim>
					<dim>1</dim>
					<dim>1</dim>
					<dim>3</dim>
					<dim>3</dim>
				</port>
			</output>
		</layer>
		<layer id="187" name="Conv_44/WithoutBiases" type="GroupConvolution" version="opset1">
			<data strides="1, 1" pads_begin="1, 1" pads_end="1, 1" dilations="1, 1" auto_pad="explicit"/>
			<rt_info>
				<attribute name="fused_names" version="0" value="Conv_44/WithoutBiases, Reshape_2242"/>
			</rt_info>
			<input>
				<port id="0" precision="FP32">
					<dim>1</dim>
					<dim>64</dim>
					<dim>1</dim>
					<dim>2</dim>
				</port>
				<port id="1" precision="FP32">
					<dim>64</dim>
					<dim>1</dim>
					<dim>1</dim>
					<dim>3</dim>
					<dim>3</dim>
				</port>
			</input>
			<output>
				<port id="2" precision="FP32">
					<dim>1</dim>
					<dim>64</dim>
					<dim>1</dim>
					<dim>2</dim>
				</port>
			</output>
		</layer>
		<layer id="188" name="Reshape_2328" type="Const" version="opset1">
			<data element_type="f32" shape="1, 64, 1, 1" offset="297252" size="256"/>
			<output>
				<port id="0" precision="FP32">
					<dim>1</dim>
					<dim>64</dim>
					<dim>1</dim>
					<dim>1</dim>
				</port>
			</output>
		</layer>
		<layer id="189" name="Conv_44" type="Add" version="opset1">
			<data auto_broadcast="numpy"/>
			<rt_info>
				<attribute name="fused_names" version="0" value="Concat_2327, Conv_44, Reshape_2328"/>
			</rt_info>
			<input>
				<port id="0" precision="FP32">
					<dim>1</dim>
					<dim>64</dim>
					<dim>1</dim>
					<dim>2</dim>
				</port>
				<port id="1" precision="FP32">
					<dim>1</dim>
					<dim>64</dim>
					<dim>1</dim>
					<dim>1</dim>
				</port>
			</input>
			<output>
				<port id="2" precision="FP32" names="369">
					<dim>1</dim>
					<dim>64</dim>
					<dim>1</dim>
					<dim>2</dim>
				</port>
			</output>
		</layer>
		<layer id="190" name="Relu_45" type="ReLU" version="opset1">
			<rt_info>
				<attribute name="fused_names" version="0" value="Relu_45"/>
			</rt_info>
			<input>
				<port id="0" precision="FP32">
					<dim>1</dim>
					<dim>64</dim>
					<dim>1</dim>
					<dim>2</dim>
				</port>
			</input>
			<output>
				<port id="1" precision="FP32" names="236">
					<dim>1</dim>
					<dim>64</dim>
					<dim>1</dim>
					<dim>2</dim>
				</port>
			</output>
		</layer>
		<layer id="191" name="head.3.conv1.conv1.weight" type="Const" version="opset1">
			<data element_type="f32" shape="64, 64, 1, 1" offset="297508" size="16384"/>
			<rt_info>
				<attribute name="fused_names" version="0" value="head.3.conv1.conv1.weight"/>
			</rt_info>
			<output>
				<port id="0" precision="FP32" names="head.3.conv1.conv1.weight">
					<dim>64</dim>
					<dim>64</dim>
					<dim>1</dim>
					<dim>1</dim>
				</port>
			</output>
		</layer>
		<layer id="192" name="Conv_64/WithoutBiases" type="Convolution" version="opset1">
			<data strides="1, 1" dilations="1, 1" pads_begin="0, 0" pads_end="0, 0" auto_pad="explicit"/>
			<rt_info>
				<attribute name="fused_names" version="0" value="Conv_64/WithoutBiases"/>
			</rt_info>
			<input>
				<port id="0" precision="FP32">
					<dim>1</dim>
					<dim>64</dim>
					<dim>1</dim>
					<dim>2</dim>
				</port>
				<port id="1" precision="FP32">
					<dim>64</dim>
					<dim>64</dim>
					<dim>1</dim>
					<dim>1</dim>
				</port>
			</input>
			<output>
				<port id="2" precision="FP32">
					<dim>1</dim>
					<dim>64</dim>
					<dim>1</dim>
					<dim>2</dim>
				</port>
			</output>
		</layer>
		<layer id="193" name="Reshape_3400" type="Const" version="opset1">
			<data element_type="f32" shape="1, 64, 1, 1" offset="313892" size="256"/>
			<output>
				<port id="0" precision="FP32">
					<dim>1</dim>
					<dim>64</dim>
					<dim>1</dim>
					<dim>1</dim>
				</port>
			</output>
		</layer>
		<layer id="194" name="Conv_64" type="Add" version="opset1">
			<data auto_broadcast="numpy"/>
			<rt_info>
				<attribute name="fused_names" version="0" value="Concat_3399, Conv_64, Reshape_3400"/>
			</rt_info>
			<input>
				<port id="0" precision="FP32">
					<dim>1</dim>
					<dim>64</dim>
					<dim>1</dim>
					<dim>2</dim>
				</port>
				<port id="1" precision="FP32">
					<dim>1</dim>
					<dim>64</dim>
					<dim>1</dim>
					<dim>1</dim>
				</port>
			</input>
			<output>
				<port id="2" precision="FP32" names="258">
					<dim>1</dim>
					<dim>64</dim>
					<dim>1</dim>
					<dim>2</dim>
				</port>
			</output>
		</layer>
		<layer id="195" name="Reshape_3435" type="Const" version="opset1">
			<data element_type="f32" shape="64, 1, 1, 3, 3" offset="314148" size="2304"/>
			<output>
				<port id="0" precision="FP32">
					<dim>64</dim>
					<dim>1</dim>
					<dim>1</dim>
					<dim>3</dim>
					<dim>3</dim>
				</port>
			</output>
		</layer>
		<layer id="196" name="Conv_65/WithoutBiases" type="GroupConvolution" version="opset1">
			<data strides="1, 1" pads_begin="1, 1" pads_end="1, 1" dilations="1, 1" auto_pad="explicit"/>
			<rt_info>
				<attribute name="fused_names" version="0" value="Conv_65/WithoutBiases, Reshape_3435"/>
			</rt_info>
			<input>
				<port id="0" precision="FP32">
					<dim>1</dim>
					<dim>64</dim>
					<dim>1</dim>
					<dim>2</dim>
				</port>
				<port id="1" precision="FP32">
					<dim>64</dim>
					<dim>1</dim>
					<dim>1</dim>
					<dim>3</dim>
					<dim>3</dim>
				</port>
			</input>
			<output>
				<port id="2" precision="FP32">
					<dim>1</dim>
					<dim>64</dim>
					<dim>1</dim>
					<dim>2</dim>
				</port>
			</output>
		</layer>
		<layer id="197" name="Reshape_3521" type="Const" version="opset1">
			<data element_type="f32" shape="1, 64, 1, 1" offset="316452" size="256"/>
			<output>
				<port id="0" precision="FP32">
					<dim>1</dim>
					<dim>64</dim>
					<dim>1</dim>
					<dim>1</dim>
				</port>
			</output>
		</layer>
		<layer id="198" name="Conv_65" type="Add" version="opset1">
			<data auto_broadcast="numpy"/>
			<rt_info>
				<attribute name="fused_names" version="0" value="Concat_3520, Conv_65, Reshape_3521"/>
			</rt_info>
			<input>
				<port id="0" precision="FP32">
					<dim>1</dim>
					<dim>64</dim>
					<dim>1</dim>
					<dim>2</dim>
				</port>
				<port id="1" precision="FP32">
					<dim>1</dim>
					<dim>64</dim>
					<dim>1</dim>
					<dim>1</dim>
				</port>
			</input>
			<output>
				<port id="2" precision="FP32" names="381">
					<dim>1</dim>
					<dim>64</dim>
					<dim>1</dim>
					<dim>2</dim>
				</port>
			</output>
		</layer>
		<layer id="199" name="Relu_66" type="ReLU" version="opset1">
			<rt_info>
				<attribute name="fused_names" version="0" value="Relu_66"/>
			</rt_info>
			<input>
				<port id="0" precision="FP32">
					<dim>1</dim>
					<dim>64</dim>
					<dim>1</dim>
					<dim>2</dim>
				</port>
			</input>
			<output>
				<port id="1" precision="FP32" names="261">
					<dim>1</dim>
					<dim>64</dim>
					<dim>1</dim>
					<dim>2</dim>
				</port>
			</output>
		</layer>
		<layer id="200" name="head.3.conv2.conv1.weight" type="Const" version="opset1">
			<data element_type="f32" shape="51, 64, 1, 1" offset="316708" size="13056"/>
			<rt_info>
				<attribute name="fused_names" version="0" value="head.3.conv2.conv1.weight"/>
			</rt_info>
			<output>
				<port id="0" precision="FP32" names="head.3.conv2.conv1.weight">
					<dim>51</dim>
					<dim>64</dim>
					<dim>1</dim>
					<dim>1</dim>
				</port>
			</output>
		</layer>
		<layer id="201" name="Conv_67/WithoutBiases" type="Convolution" version="opset1">
			<data strides="1, 1" dilations="1, 1" pads_begin="0, 0" pads_end="0, 0" auto_pad="explicit"/>
			<rt_info>
				<attribute name="fused_names" version="0" value="Conv_67/WithoutBiases"/>
			</rt_info>
			<input>
				<port id="0" precision="FP32">
					<dim>1</dim>
					<dim>64</dim>
					<dim>1</dim>
					<dim>2</dim>
				</port>
				<port id="1" precision="FP32">
					<dim>51</dim>
					<dim>64</dim>
					<dim>1</dim>
					<dim>1</dim>
				</port>
			</input>
			<output>
				<port id="2" precision="FP32">
					<dim>1</dim>
					<dim>51</dim>
					<dim>1</dim>
					<dim>2</dim>
				</port>
			</output>
		</layer>
		<layer id="202" name="Reshape_3570" type="Const" version="opset1">
			<data element_type="f32" shape="1, 51, 1, 1" offset="329764" size="204"/>
			<output>
				<port id="0" precision="FP32">
					<dim>1</dim>
					<dim>51</dim>
					<dim>1</dim>
					<dim>1</dim>
				</port>
			</output>
		</layer>
		<layer id="203" name="Conv_67" type="Add" version="opset1">
			<data auto_broadcast="numpy"/>
			<rt_info>
				<attribute name="fused_names" version="0" value="Concat_3569, Conv_67, Reshape_3570"/>
			</rt_info>
			<input>
				<port id="0" precision="FP32">
					<dim>1</dim>
					<dim>51</dim>
					<dim>1</dim>
					<dim>2</dim>
				</port>
				<port id="1" precision="FP32">
					<dim>1</dim>
					<dim>51</dim>
					<dim>1</dim>
					<dim>1</dim>
				</port>
			</input>
			<output>
				<port id="2" precision="FP32" names="262">
					<dim>1</dim>
					<dim>51</dim>
					<dim>1</dim>
					<dim>2</dim>
				</port>
			</output>
		</layer>
		<layer id="204" name="Reshape_3605" type="Const" version="opset1">
			<data element_type="f32" shape="51, 1, 1, 3, 3" offset="329968" size="1836"/>
			<output>
				<port id="0" precision="FP32">
					<dim>51</dim>
					<dim>1</dim>
					<dim>1</dim>
					<dim>3</dim>
					<dim>3</dim>
				</port>
			</output>
		</layer>
		<layer id="205" name="Conv_68/WithoutBiases" type="GroupConvolution" version="opset1">
			<data strides="1, 1" pads_begin="1, 1" pads_end="1, 1" dilations="1, 1" auto_pad="explicit"/>
			<rt_info>
				<attribute name="fused_names" version="0" value="Conv_68/WithoutBiases, Reshape_3605"/>
			</rt_info>
			<input>
				<port id="0" precision="FP32">
					<dim>1</dim>
					<dim>51</dim>
					<dim>1</dim>
					<dim>2</dim>
				</port>
				<port id="1" precision="FP32">
					<dim>51</dim>
					<dim>1</dim>
					<dim>1</dim>
					<dim>3</dim>
					<dim>3</dim>
				</port>
			</input>
			<output>
				<port id="2" precision="FP32">
					<dim>1</dim>
					<dim>51</dim>
					<dim>1</dim>
					<dim>2</dim>
				</port>
			</output>
		</layer>
		<layer id="206" name="Reshape_3691" type="Const" version="opset1">
			<data element_type="f32" shape="1, 51, 1, 1" offset="331804" size="204"/>
			<output>
				<port id="0" precision="FP32">
					<dim>1</dim>
					<dim>51</dim>
					<dim>1</dim>
					<dim>1</dim>
				</port>
			</output>
		</layer>
		<layer id="207" name="Conv_68" type="Add" version="opset1">
			<data auto_broadcast="numpy"/>
			<rt_info>
				<attribute name="fused_names" version="0" value="Concat_3690, Conv_68, Reshape_3691"/>
			</rt_info>
			<input>
				<port id="0" precision="FP32">
					<dim>1</dim>
					<dim>51</dim>
					<dim>1</dim>
					<dim>2</dim>
				</port>
				<port id="1" precision="FP32">
					<dim>1</dim>
					<dim>51</dim>
					<dim>1</dim>
					<dim>1</dim>
				</port>
			</input>
			<output>
				<port id="2" precision="FP32" names="263">
					<dim>1</dim>
					<dim>51</dim>
					<dim>1</dim>
					<dim>2</dim>
				</port>
			</output>
		</layer>
		<layer id="208" name="Constant_3719" type="Const" version="opset1">
			<data element_type="i64" shape="4" offset="123460" size="32"/>
			<rt_info>
				<attribute name="fused_names" version="0" value="Constant_3719"/>
			</rt_info>
			<output>
				<port id="0" precision="I64">
					<dim>4</dim>
				</port>
			</output>
		</layer>
		<layer id="209" name="Transpose_69" type="Transpose" version="opset1">
			<rt_info>
				<attribute name="fused_names" version="0" value="Transpose_69"/>
			</rt_info>
			<input>
				<port id="0" precision="FP32">
					<dim>1</dim>
					<dim>51</dim>
					<dim>1</dim>
					<dim>2</dim>
				</port>
				<port id="1" precision="I64">
					<dim>4</dim>
				</port>
			</input>
			<output>
				<port id="2" precision="FP32" names="264">
					<dim>1</dim>
					<dim>1</dim>
					<dim>2</dim>
					<dim>51</dim>
				</port>
			</output>
		</layer>
		<layer id="210" name="Concat_92" type="Const" version="opset1">
			<data element_type="i64" shape="2" offset="123492" size="16"/>
			<rt_info>
				<attribute name="fused_names" version="0" value="387, Concat_92"/>
			</rt_info>
			<output>
				<port id="0" precision="I64">
					<dim>2</dim>
				</port>
			</output>
		</layer>
		<layer id="211" name="Reshape_93" type="Reshape" version="opset1">
			<data special_zero="true"/>
			<rt_info>
				<attribute name="fused_names" version="0" value="Reshape_93"/>
			</rt_info>
			<input>
				<port id="0" precision="FP32">
					<dim>1</dim>
					<dim>1</dim>
					<dim>2</dim>
					<dim>51</dim>
				</port>
				<port id="1" precision="I64">
					<dim>2</dim>
				</port>
			</input>
			<output>
				<port id="2" precision="FP32" names="296">
					<dim>1</dim>
					<dim>102</dim>
				</port>
			</output>
		</layer>
		<layer id="212" name="Concat_94" type="Concat" version="opset1">
			<data axis="1"/>
			<rt_info>
				<attribute name="fused_names" version="0" value="Concat_94"/>
			</rt_info>
			<input>
				<port id="0" precision="FP32">
					<dim>1</dim>
					<dim>15300</dim>
				</port>
				<port id="1" precision="FP32">
					<dim>1</dim>
					<dim>2380</dim>
				</port>
				<port id="2" precision="FP32">
					<dim>1</dim>
					<dim>510</dim>
				</port>
				<port id="3" precision="FP32">
					<dim>1</dim>
					<dim>102</dim>
				</port>
			</input>
			<output>
				<port id="4" precision="FP32" names="297">
					<dim>1</dim>
					<dim>18292</dim>
				</port>
			</output>
		</layer>
		<layer id="213" name="Concat_99" type="Const" version="opset1">
			<data element_type="i64" shape="3" offset="332008" size="24"/>
			<rt_info>
				<attribute name="fused_names" version="0" value="388, 389, Concat_99"/>
			</rt_info>
			<output>
				<port id="0" precision="I64">
					<dim>3</dim>
				</port>
			</output>
		</layer>
		<layer id="214" name="Reshape_100" type="Reshape" version="opset1">
			<data special_zero="true"/>
			<rt_info>
				<attribute name="fused_names" version="0" value="Reshape_100"/>
			</rt_info>
			<input>
				<port id="0" precision="FP32">
					<dim>1</dim>
					<dim>18292</dim>
				</port>
				<port id="1" precision="I64">
					<dim>3</dim>
				</port>
			</input>
			<output>
				<port id="2" precision="FP32" names="307">
					<dim>1</dim>
					<dim>1076</dim>
					<dim>17</dim>
				</port>
			</output>
		</layer>
		<layer id="215" name="Constant_8976" type="Const" version="opset1">
			<data element_type="i64" shape="3" offset="332032" size="24"/>
			<rt_info>
				<attribute name="fused_names" version="0" value="Slice_115"/>
			</rt_info>
			<output>
				<port id="0" precision="I64">
					<dim>3</dim>
				</port>
			</output>
		</layer>
		<layer id="216" name="Constant_8979" type="Const" version="opset1">
			<data element_type="i64" shape="3" offset="332056" size="24"/>
			<rt_info>
				<attribute name="fused_names" version="0" value="Slice_115"/>
			</rt_info>
			<output>
				<port id="0" precision="I64">
					<dim>3</dim>
				</port>
			</output>
		</layer>
		<layer id="217" name="Constant_8982" type="Const" version="opset1">
			<data element_type="i64" shape="3" offset="332080" size="24"/>
			<rt_info>
				<attribute name="fused_names" version="0" value="Slice_115"/>
			</rt_info>
			<output>
				<port id="0" precision="I64">
					<dim>3</dim>
				</port>
			</output>
		</layer>
		<layer id="218" name="Slice_115" type="StridedSlice" version="opset1">
			<data begin_mask="1, 1, 0" end_mask="1, 1, 0" new_axis_mask="" shrink_axis_mask="" ellipsis_mask=""/>
			<rt_info>
				<attribute name="fused_names" version="0" value="Slice_115"/>
			</rt_info>
			<input>
				<port id="0" precision="FP32">
					<dim>1</dim>
					<dim>1076</dim>
					<dim>17</dim>
				</port>
				<port id="1" precision="I64">
					<dim>3</dim>
				</port>
				<port id="2" precision="I64">
					<dim>3</dim>
				</port>
				<port id="3" precision="I64">
					<dim>3</dim>
				</port>
			</input>
			<output>
				<port id="4" precision="FP32" names="322">
					<dim>1</dim>
					<dim>1076</dim>
					<dim>1</dim>
				</port>
			</output>
		</layer>
		<layer id="219" name="Constant_121" type="Const" version="opset1">
			<data element_type="i64" shape="2" offset="332104" size="16"/>
			<rt_info>
				<attribute name="fused_names" version="0" value="Constant_121"/>
			</rt_info>
			<output>
				<port id="0" precision="I64" names="328">
					<dim>2</dim>
				</port>
			</output>
		</layer>
		<layer id="220" name="iou" type="Reshape" version="opset1">
			<data special_zero="true"/>
			<rt_info>
				<attribute name="fused_names" version="0" value="iou"/>
			</rt_info>
			<input>
				<port id="0" precision="FP32">
					<dim>1</dim>
					<dim>1076</dim>
					<dim>1</dim>
				</port>
				<port id="1" precision="I64">
					<dim>2</dim>
				</port>
			</input>
			<output>
				<port id="2" precision="FP32" names="iou">
					<dim>1076</dim>
					<dim>1</dim>
				</port>
			</output>
		</layer>
		<layer id="222" name="Constant_8988" type="Const" version="opset1">
			<data element_type="i64" shape="3" offset="332120" size="24"/>
			<rt_info>
				<attribute name="fused_names" version="0" value="Slice_110"/>
			</rt_info>
			<output>
				<port id="0" precision="I64">
					<dim>3</dim>
				</port>
			</output>
		</layer>
		<layer id="223" name="Constant_8991" type="Const" version="opset1">
			<data element_type="i64" shape="3" offset="332032" size="24"/>
			<rt_info>
				<attribute name="fused_names" version="0" value="Slice_110"/>
			</rt_info>
			<output>
				<port id="0" precision="I64">
					<dim>3</dim>
				</port>
			</output>
		</layer>
		<layer id="224" name="Constant_8994" type="Const" version="opset1">
			<data element_type="i64" shape="3" offset="332080" size="24"/>
			<rt_info>
				<attribute name="fused_names" version="0" value="Slice_110"/>
			</rt_info>
			<output>
				<port id="0" precision="I64">
					<dim>3</dim>
				</port>
			</output>
		</layer>
		<layer id="225" name="Slice_110" type="StridedSlice" version="opset1">
			<data begin_mask="1, 1, 0" end_mask="1, 1, 0" new_axis_mask="" shrink_axis_mask="" ellipsis_mask=""/>
			<rt_info>
				<attribute name="fused_names" version="0" value="Slice_110"/>
			</rt_info>
			<input>
				<port id="0" precision="FP32">
					<dim>1</dim>
					<dim>1076</dim>
					<dim>17</dim>
				</port>
				<port id="1" precision="I64">
					<dim>3</dim>
				</port>
				<port id="2" precision="I64">
					<dim>3</dim>
				</port>
				<port id="3" precision="I64">
					<dim>3</dim>
				</port>
			</input>
			<output>
				<port id="4" precision="FP32" names="317">
					<dim>1</dim>
					<dim>1076</dim>
					<dim>2</dim>
				</port>
			</output>
		</layer>
		<layer id="226" name="Constant_118" type="Const" version="opset1">
			<data element_type="i64" shape="2" offset="332144" size="16"/>
			<rt_info>
				<attribute name="fused_names" version="0" value="Constant_118"/>
			</rt_info>
			<output>
				<port id="0" precision="I64" names="325">
					<dim>2</dim>
				</port>
			</output>
		</layer>
		<layer id="227" name="Reshape_119" type="Reshape" version="opset1">
			<data special_zero="true"/>
			<rt_info>
				<attribute name="fused_names" version="0" value="Reshape_119"/>
			</rt_info>
			<input>
				<port id="0" precision="FP32">
					<dim>1</dim>
					<dim>1076</dim>
					<dim>2</dim>
				</port>
				<port id="1" precision="I64">
					<dim>2</dim>
				</port>
			</input>
			<output>
				<port id="2" precision="FP32" names="326">
					<dim>1076</dim>
					<dim>2</dim>
				</port>
			</output>
		</layer>
		<layer id="228" name="conf" type="SoftMax" version="opset8">
			<data axis="1"/>
			<rt_info>
				<attribute name="fused_names" version="0" value="conf"/>
			</rt_info>
			<input>
				<port id="0" precision="FP32">
					<dim>1076</dim>
					<dim>2</dim>
				</port>
			</input>
			<output>
				<port id="1" precision="FP32" names="conf">
					<dim>1076</dim>
					<dim>2</dim>
				</port>
			</output>
		</layer>
		<layer id="230" name="Constant_9000" type="Const" version="opset1">
			<data element_type="i64" shape="3" offset="332160" size="24"/>
			<rt_info>
				<attribute name="fused_names" version="0" value="Slice_105"/>
			</rt_info>
			<output>
				<port id="0" precision="I64">
					<dim>3</dim>
				</port>
			</output>
		</layer>
		<layer id="231" name="Constant_9003" type="Const" version="opset1">
			<data element_type="i64" shape="3" offset="332120" size="24"/>
			<rt_info>
				<attribute name="fused_names" version="0" value="Slice_105"/>
			</rt_info>
			<output>
				<port id="0" precision="I64">
					<dim>3</dim>
				</port>
			</output>
		</layer>
		<layer id="232" name="Constant_9006" type="Const" version="opset1">
			<data element_type="i64" shape="3" offset="332080" size="24"/>
			<rt_info>
				<attribute name="fused_names" version="0" value="Slice_105"/>
			</rt_info>
			<output>
				<port id="0" precision="I64">
					<dim>3</dim>
				</port>
			</output>
		</layer>
		<layer id="233" name="Slice_105" type="StridedSlice" version="opset1">
			<data begin_mask="1, 1, 0" end_mask="1, 1, 0" new_axis_mask="" shrink_axis_mask="" ellipsis_mask=""/>
			<rt_info>
				<attribute name="fused_names" version="0" value="Slice_105"/>
			</rt_info>
			<input>
				<port id="0" precision="FP32">
					<dim>1</dim>
					<dim>1076</dim>
					<dim>17</dim>
				</port>
				<port id="1" precision="I64">
					<dim>3</dim>
				</port>
				<port id="2" precision="I64">
					<dim>3</dim>
				</port>
				<port id="3" precision="I64">
					<dim>3</dim>
				</port>
			</input>
			<output>
				<port id="4" precision="FP32" names="312">
					<dim>1</dim>
					<dim>1076</dim>
					<dim>14</dim>
				</port>
			</output>
		</layer>
		<layer id="234" name="Constant_116" type="Const" version="opset1">
			<data element_type="i64" shape="2" offset="332184" size="16"/>
			<rt_info>
				<attribute name="fused_names" version="0" value="Constant_116"/>
			</rt_info>
			<output>
				<port id="0" precision="I64" names="323">
					<dim>2</dim>
				</port>
			</output>
		</layer>
		<layer id="235" name="loc" type="Reshape" version="opset1">
			<data special_zero="true"/>
			<rt_info>
				<attribute name="fused_names" version="0" value="loc"/>
			</rt_info>
			<input>
				<port id="0" precision="FP32">
					<dim>1</dim>
					<dim>1076</dim>
					<dim>14</dim>
				</port>
				<port id="1" precision="I64">
					<dim>2</dim>
				</port>
			</input>
			<output>
				<port id="2" precision="FP32" names="loc">
					<dim>1076</dim>
					<dim>14</dim>
				</port>
			</output>
		</layer>
		<layer id="236" name="loc/sink_port_0" type="Result" version="opset1">
			<rt_info>
				<attribute name="fused_names" version="0" value="loc/sink_port_0"/>
			</rt_info>
			<input>
				<port id="0" precision="FP32">
					<dim>1076</dim>
					<dim>14</dim>
				</port>
			</input>
		</layer>
		<layer id="229" name="conf/sink_port_0" type="Result" version="opset1">
			<rt_info>
				<attribute name="fused_names" version="0" value="conf/sink_port_0"/>
			</rt_info>
			<input>
				<port id="0" precision="FP32">
					<dim>1076</dim>
					<dim>2</dim>
				</port>
			</input>
		</layer>
		<layer id="221" name="iou/sink_port_0" type="Result" version="opset1">
			<rt_info>
				<attribute name="fused_names" version="0" value="iou/sink_port_0"/>
			</rt_info>
			<input>
				<port id="0" precision="FP32">
					<dim>1076</dim>
					<dim>1</dim>
				</port>
			</input>
		</layer>
	</layers>
	<edges>
		<edge from-layer="0" from-port="0" to-layer="2" to-port="0"/>
		<edge from-layer="1" from-port="0" to-layer="2" to-port="1"/>
		<edge from-layer="2" from-port="2" to-layer="4" to-port="0"/>
		<edge from-layer="3" from-port="0" to-layer="4" to-port="1"/>
		<edge from-layer="4" from-port="2" to-layer="5" to-port="0"/>
		<edge from-layer="5" from-port="1" to-layer="7" to-port="0"/>
		<edge from-layer="6" from-port="0" to-layer="7" to-port="1"/>
		<edge from-layer="7" from-port="2" to-layer="9" to-port="0"/>
		<edge from-layer="8" from-port="0" to-layer="9" to-port="1"/>
		<edge from-layer="9" from-port="2" to-layer="11" to-port="0"/>
		<edge from-layer="10" from-port="0" to-layer="11" to-port="1"/>
		<edge from-layer="11" from-port="2" to-layer="13" to-port="0"/>
		<edge from-layer="12" from-port="0" to-layer="13" to-port="1"/>
		<edge from-layer="13" from-port="2" to-layer="14" to-port="0"/>
		<edge from-layer="14" from-port="1" to-layer="15" to-port="0"/>
		<edge from-layer="15" from-port="1" to-layer="17" to-port="0"/>
		<edge from-layer="16" from-port="0" to-layer="17" to-port="1"/>
		<edge from-layer="17" from-port="2" to-layer="19" to-port="0"/>
		<edge from-layer="18" from-port="0" to-layer="19" to-port="1"/>
		<edge from-layer="19" from-port="2" to-layer="21" to-port="0"/>
		<edge from-layer="20" from-port="0" to-layer="21" to-port="1"/>
		<edge from-layer="21" from-port="2" to-layer="23" to-port="0"/>
		<edge from-layer="22" from-port="0" to-layer="23" to-port="1"/>
		<edge from-layer="23" from-port="2" to-layer="24" to-port="0"/>
		<edge from-layer="24" from-port="1" to-layer="26" to-port="0"/>
		<edge from-layer="25" from-port="0" to-layer="26" to-port="1"/>
		<edge from-layer="26" from-port="2" to-layer="28" to-port="0"/>
		<edge from-layer="27" from-port="0" to-layer="28" to-port="1"/>
		<edge from-layer="28" from-port="2" to-layer="30" to-port="0"/>
		<edge from-layer="29" from-port="0" to-layer="30" to-port="1"/>
		<edge from-layer="30" from-port="2" to-layer="32" to-port="0"/>
		<edge from-layer="31" from-port="0" to-layer="32" to-port="1"/>
		<edge from-layer="32" from-port="2" to-layer="33" to-port="0"/>
		<edge from-layer="33" from-port="1" to-layer="35" to-port="0"/>
		<edge from-layer="34" from-port="0" to-layer="35" to-port="1"/>
		<edge from-layer="35" from-port="2" to-layer="37" to-port="0"/>
		<edge from-layer="36" from-port="0" to-layer="37" to-port="1"/>
		<edge from-layer="37" from-port="2" to-layer="39" to-port="0"/>
		<edge from-layer="38" from-port="0" to-layer="39" to-port="1"/>
		<edge from-layer="39" from-port="2" to-layer="41" to-port="0"/>
		<edge from-layer="40" from-port="0" to-layer="41" to-port="1"/>
		<edge from-layer="41" from-port="2" to-layer="42" to-port="0"/>
		<edge from-layer="42" from-port="1" to-layer="44" to-port="0"/>
		<edge from-layer="43" from-port="0" to-layer="44" to-port="1"/>
		<edge from-layer="44" from-port="2" to-layer="46" to-port="0"/>
		<edge from-layer="45" from-port="0" to-layer="46" to-port="1"/>
		<edge from-layer="46" from-port="2" to-layer="48" to-port="0"/>
		<edge from-layer="47" from-port="0" to-layer="48" to-port="1"/>
		<edge from-layer="48" from-port="2" to-layer="50" to-port="0"/>
		<edge from-layer="49" from-port="0" to-layer="50" to-port="1"/>
		<edge from-layer="50" from-port="2" to-layer="51" to-port="0"/>
		<edge from-layer="51" from-port="1" to-layer="52" to-port="0"/>
		<edge from-layer="52" from-port="1" to-layer="54" to-port="0"/>
		<edge from-layer="53" from-port="0" to-layer="54" to-port="1"/>
		<edge from-layer="54" from-port="2" to-layer="56" to-port="0"/>
		<edge from-layer="55" from-port="0" to-layer="56" to-port="1"/>
		<edge from-layer="56" from-port="2" to-layer="58" to-port="0"/>
		<edge from-layer="57" from-port="0" to-layer="58" to-port="1"/>
		<edge from-layer="58" from-port="2" to-layer="60" to-port="0"/>
		<edge from-layer="59" from-port="0" to-layer="60" to-port="1"/>
		<edge from-layer="60" from-port="2" to-layer="61" to-port="0"/>
		<edge from-layer="61" from-port="1" to-layer="63" to-port="0"/>
		<edge from-layer="62" from-port="0" to-layer="63" to-port="1"/>
		<edge from-layer="63" from-port="2" to-layer="65" to-port="0"/>
		<edge from-layer="64" from-port="0" to-layer="65" to-port="1"/>
		<edge from-layer="65" from-port="2" to-layer="67" to-port="0"/>
		<edge from-layer="66" from-port="0" to-layer="67" to-port="1"/>
		<edge from-layer="67" from-port="2" to-layer="69" to-port="0"/>
		<edge from-layer="68" from-port="0" to-layer="69" to-port="1"/>
		<edge from-layer="69" from-port="2" to-layer="70" to-port="0"/>
		<edge from-layer="70" from-port="1" to-layer="72" to-port="0"/>
		<edge from-layer="70" from-port="1" to-layer="92" to-port="0"/>
		<edge from-layer="71" from-port="0" to-layer="72" to-port="1"/>
		<edge from-layer="72" from-port="2" to-layer="74" to-port="0"/>
		<edge from-layer="73" from-port="0" to-layer="74" to-port="1"/>
		<edge from-layer="74" from-port="2" to-layer="76" to-port="0"/>
		<edge from-layer="75" from-port="0" to-layer="76" to-port="1"/>
		<edge from-layer="76" from-port="2" to-layer="78" to-port="0"/>
		<edge from-layer="77" from-port="0" to-layer="78" to-port="1"/>
		<edge from-layer="78" from-port="2" to-layer="79" to-port="0"/>
		<edge from-layer="79" from-port="1" to-layer="81" to-port="0"/>
		<edge from-layer="80" from-port="0" to-layer="81" to-port="1"/>
		<edge from-layer="81" from-port="2" to-layer="83" to-port="0"/>
		<edge from-layer="82" from-port="0" to-layer="83" to-port="1"/>
		<edge from-layer="83" from-port="2" to-layer="85" to-port="0"/>
		<edge from-layer="84" from-port="0" to-layer="85" to-port="1"/>
		<edge from-layer="85" from-port="2" to-layer="87" to-port="0"/>
		<edge from-layer="86" from-port="0" to-layer="87" to-port="1"/>
		<edge from-layer="87" from-port="2" to-layer="89" to-port="0"/>
		<edge from-layer="88" from-port="0" to-layer="89" to-port="1"/>
		<edge from-layer="89" from-port="2" to-layer="91" to-port="0"/>
		<edge from-layer="90" from-port="0" to-layer="91" to-port="1"/>
		<edge from-layer="91" from-port="2" to-layer="212" to-port="0"/>
		<edge from-layer="92" from-port="1" to-layer="94" to-port="0"/>
		<edge from-layer="93" from-port="0" to-layer="94" to-port="1"/>
		<edge from-layer="94" from-port="2" to-layer="96" to-port="0"/>
		<edge from-layer="95" from-port="0" to-layer="96" to-port="1"/>
		<edge from-layer="96" from-port="2" to-layer="98" to-port="0"/>
		<edge from-layer="97" from-port="0" to-layer="98" to-port="1"/>
		<edge from-layer="98" from-port="2" to-layer="100" to-port="0"/>
		<edge from-layer="99" from-port="0" to-layer="100" to-port="1"/>
		<edge from-layer="100" from-port="2" to-layer="101" to-port="0"/>
		<edge from-layer="101" from-port="1" to-layer="103" to-port="0"/>
		<edge from-layer="102" from-port="0" to-layer="103" to-port="1"/>
		<edge from-layer="103" from-port="2" to-layer="105" to-port="0"/>
		<edge from-layer="104" from-port="0" to-layer="105" to-port="1"/>
		<edge from-layer="105" from-port="2" to-layer="107" to-port="0"/>
		<edge from-layer="106" from-port="0" to-layer="107" to-port="1"/>
		<edge from-layer="107" from-port="2" to-layer="109" to-port="0"/>
		<edge from-layer="108" from-port="0" to-layer="109" to-port="1"/>
		<edge from-layer="109" from-port="2" to-layer="110" to-port="0"/>
		<edge from-layer="110" from-port="1" to-layer="112" to-port="0"/>
		<edge from-layer="110" from-port="1" to-layer="132" to-port="0"/>
		<edge from-layer="111" from-port="0" to-layer="112" to-port="1"/>
		<edge from-layer="112" from-port="2" to-layer="114" to-port="0"/>
		<edge from-layer="113" from-port="0" to-layer="114" to-port="1"/>
		<edge from-layer="114" from-port="2" to-layer="116" to-port="0"/>
		<edge from-layer="115" from-port="0" to-layer="116" to-port="1"/>
		<edge from-layer="116" from-port="2" to-layer="118" to-port="0"/>
		<edge from-layer="117" from-port="0" to-layer="118" to-port="1"/>
		<edge from-layer="118" from-port="2" to-layer="119" to-port="0"/>
		<edge from-layer="119" from-port="1" to-layer="121" to-port="0"/>
		<edge from-layer="120" from-port="0" to-layer="121" to-port="1"/>
		<edge from-layer="121" from-port="2" to-layer="123" to-port="0"/>
		<edge from-layer="122" from-port="0" to-layer="123" to-port="1"/>
		<edge from-layer="123" from-port="2" to-layer="125" to-port="0"/>
		<edge from-layer="124" from-port="0" to-layer="125" to-port="1"/>
		<edge from-layer="125" from-port="2" to-layer="127" to-port="0"/>
		<edge from-layer="126" from-port="0" to-layer="127" to-port="1"/>
		<edge from-layer="127" from-port="2" to-layer="129" to-port="0"/>
		<edge from-layer="128" from-port="0" to-layer="129" to-port="1"/>
		<edge from-layer="129" from-port="2" to-layer="131" to-port="0"/>
		<edge from-layer="130" from-port="0" to-layer="131" to-port="1"/>
		<edge from-layer="131" from-port="2" to-layer="212" to-port="1"/>
		<edge from-layer="132" from-port="1" to-layer="134" to-port="0"/>
		<edge from-layer="133" from-port="0" to-layer="134" to-port="1"/>
		<edge from-layer="134" from-port="2" to-layer="136" to-port="0"/>
		<edge from-layer="135" from-port="0" to-layer="136" to-port="1"/>
		<edge from-layer="136" from-port="2" to-layer="138" to-port="0"/>
		<edge from-layer="137" from-port="0" to-layer="138" to-port="1"/>
		<edge from-layer="138" from-port="2" to-layer="140" to-port="0"/>
		<edge from-layer="139" from-port="0" to-layer="140" to-port="1"/>
		<edge from-layer="140" from-port="2" to-layer="141" to-port="0"/>
		<edge from-layer="141" from-port="1" to-layer="143" to-port="0"/>
		<edge from-layer="142" from-port="0" to-layer="143" to-port="1"/>
		<edge from-layer="143" from-port="2" to-layer="145" to-port="0"/>
		<edge from-layer="144" from-port="0" to-layer="145" to-port="1"/>
		<edge from-layer="145" from-port="2" to-layer="147" to-port="0"/>
		<edge from-layer="146" from-port="0" to-layer="147" to-port="1"/>
		<edge from-layer="147" from-port="2" to-layer="149" to-port="0"/>
		<edge from-layer="148" from-port="0" to-layer="149" to-port="1"/>
		<edge from-layer="149" from-port="2" to-layer="150" to-port="0"/>
		<edge from-layer="150" from-port="1" to-layer="152" to-port="0"/>
		<edge from-layer="150" from-port="1" to-layer="172" to-port="0"/>
		<edge from-layer="151" from-port="0" to-layer="152" to-port="1"/>
		<edge from-layer="152" from-port="2" to-layer="154" to-port="0"/>
		<edge from-layer="153" from-port="0" to-layer="154" to-port="1"/>
		<edge from-layer="154" from-port="2" to-layer="156" to-port="0"/>
		<edge from-layer="155" from-port="0" to-layer="156" to-port="1"/>
		<edge from-layer="156" from-port="2" to-layer="158" to-port="0"/>
		<edge from-layer="157" from-port="0" to-layer="158" to-port="1"/>
		<edge from-layer="158" from-port="2" to-layer="159" to-port="0"/>
		<edge from-layer="159" from-port="1" to-layer="161" to-port="0"/>
		<edge from-layer="160" from-port="0" to-layer="161" to-port="1"/>
		<edge from-layer="161" from-port="2" to-layer="163" to-port="0"/>
		<edge from-layer="162" from-port="0" to-layer="163" to-port="1"/>
		<edge from-layer="163" from-port="2" to-layer="165" to-port="0"/>
		<edge from-layer="164" from-port="0" to-layer="165" to-port="1"/>
		<edge from-layer="165" from-port="2" to-layer="167" to-port="0"/>
		<edge from-layer="166" from-port="0" to-layer="167" to-port="1"/>
		<edge from-layer="167" from-port="2" to-layer="169" to-port="0"/>
		<edge from-layer="168" from-port="0" to-layer="169" to-port="1"/>
		<edge from-layer="169" from-port="2" to-layer="171" to-port="0"/>
		<edge from-layer="170" from-port="0" to-layer="171" to-port="1"/>
		<edge from-layer="171" from-port="2" to-layer="212" to-port="2"/>
		<edge from-layer="172" from-port="1" to-layer="174" to-port="0"/>
		<edge from-layer="173" from-port="0" to-layer="174" to-port="1"/>
		<edge from-layer="174" from-port="2" to-layer="176" to-port="0"/>
		<edge from-layer="175" from-port="0" to-layer="176" to-port="1"/>
		<edge from-layer="176" from-port="2" to-layer="178" to-port="0"/>
		<edge from-layer="177" from-port="0" to-layer="178" to-port="1"/>
		<edge from-layer="178" from-port="2" to-layer="180" to-port="0"/>
		<edge from-layer="179" from-port="0" to-layer="180" to-port="1"/>
		<edge from-layer="180" from-port="2" to-layer="181" to-port="0"/>
		<edge from-layer="181" from-port="1" to-layer="183" to-port="0"/>
		<edge from-layer="182" from-port="0" to-layer="183" to-port="1"/>
		<edge from-layer="183" from-port="2" to-layer="185" to-port="0"/>
		<edge from-layer="184" from-port="0" to-layer="185" to-port="1"/>
		<edge from-layer="185" from-port="2" to-layer="187" to-port="0"/>
		<edge from-layer="186" from-port="0" to-layer="187" to-port="1"/>
		<edge from-layer="187" from-port="2" to-layer="189" to-port="0"/>
		<edge from-layer="188" from-port="0" to-layer="189" to-port="1"/>
		<edge from-layer="189" from-port="2" to-layer="190" to-port="0"/>
		<edge from-layer="190" from-port="1" to-layer="192" to-port="0"/>
		<edge from-layer="191" from-port="0" to-layer="192" to-port="1"/>
		<edge from-layer="192" from-port="2" to-layer="194" to-port="0"/>
		<edge from-layer="193" from-port="0" to-layer="194" to-port="1"/>
		<edge from-layer="194" from-port="2" to-layer="196" to-port="0"/>
		<edge from-layer="195" from-port="0" to-layer="196" to-port="1"/>
		<edge from-layer="196" from-port="2" to-layer="198" to-port="0"/>
		<edge from-layer="197" from-port="0" to-layer="198" to-port="1"/>
		<edge from-layer="198" from-port="2" to-layer="199" to-port="0"/>
		<edge from-layer="199" from-port="1" to-layer="201" to-port="0"/>
		<edge from-layer="200" from-port="0" to-layer="201" to-port="1"/>
		<edge from-layer="201" from-port="2" to-layer="203" to-port="0"/>
		<edge from-layer="202" from-port="0" to-layer="203" to-port="1"/>
		<edge from-layer="203" from-port="2" to-layer="205" to-port="0"/>
		<edge from-layer="204" from-port="0" to-layer="205" to-port="1"/>
		<edge from-layer="205" from-port="2" to-layer="207" to-port="0"/>
		<edge from-layer="206" from-port="0" to-layer="207" to-port="1"/>
		<edge from-layer="207" from-port="2" to-layer="209" to-port="0"/>
		<edge from-layer="208" from-port="0" to-layer="209" to-port="1"/>
		<edge from-layer="209" from-port="2" to-layer="211" to-port="0"/>
		<edge from-layer="210" from-port="0" to-layer="211" to-port="1"/>
		<edge from-layer="211" from-port="2" to-layer="212" to-port="3"/>
		<edge from-layer="212" from-port="4" to-layer="214" to-port="0"/>
		<edge from-layer="213" from-port="0" to-layer="214" to-port="1"/>
		<edge from-layer="214" from-port="2" to-layer="218" to-port="0"/>
		<edge from-layer="214" from-port="2" to-layer="225" to-port="0"/>
		<edge from-layer="214" from-port="2" to-layer="233" to-port="0"/>
		<edge from-layer="215" from-port="0" to-layer="218" to-port="1"/>
		<edge from-layer="216" from-port="0" to-layer="218" to-port="2"/>
		<edge from-layer="217" from-port="0" to-layer="218" to-port="3"/>
		<edge from-layer="218" from-port="4" to-layer="220" to-port="0"/>
		<edge from-layer="219" from-port="0" to-layer="220" to-port="1"/>
		<edge from-layer="220" from-port="2" to-layer="221" to-port="0"/>
		<edge from-layer="222" from-port="0" to-layer="225" to-port="1"/>
		<edge from-layer="223" from-port="0" to-layer="225" to-port="2"/>
		<edge from-layer="224" from-port="0" to-layer="225" to-port="3"/>
		<edge from-layer="225" from-port="4" to-layer="227" to-port="0"/>
		<edge from-layer="226" from-port="0" to-layer="227" to-port="1"/>
		<edge from-layer="227" from-port="2" to-layer="228" to-port="0"/>
		<edge from-layer="228" from-port="1" to-layer="229" to-port="0"/>
		<edge from-layer="230" from-port="0" to-layer="233" to-port="1"/>
		<edge from-layer="231" from-port="0" to-layer="233" to-port="2"/>
		<edge from-layer="232" from-port="0" to-layer="233" to-port="3"/>
		<edge from-layer="233" from-port="4" to-layer="235" to-port="0"/>
		<edge from-layer="234" from-port="0" to-layer="235" to-port="1"/>
		<edge from-layer="235" from-port="2" to-layer="236" to-port="0"/>
	</edges>
	<meta_data>
		<MO_version value="custom_HEAD_af16ea1d79a494503a54cff67a2856094e447931"/>
		<Runtime_version value="2022.2.0-7713-af16ea1d79a-releases/2022/2"/>
		<legacy_path value="False"/>
		<cli_parameters>
			<caffe_parser_path value="DIR"/>
			<compress_fp16 value="False"/>
			<data_type value="float"/>
			<disable_nhwc_to_nchw value="False"/>
			<disable_omitting_optional value="False"/>
			<disable_resnet_optimization value="False"/>
			<disable_weights_compression value="False"/>
			<enable_concat_optimization value="False"/>
			<enable_flattening_nested_params value="False"/>
			<enable_ssd_gluoncv value="False"/>
			<extensions value="DIR"/>
			<framework value="onnx"/>
			<freeze_placeholder_with_value value="{}"/>
			<input_model value="DIR\face_detection_yunet_2022mar.onnx"/>
			<input_model_is_text value="False"/>
			<k value="DIR\CustomLayersMapping.xml"/>
			<layout value="()"/>
			<layout_values value="{}"/>
			<legacy_mxnet_model value="False"/>
			<log_level value="ERROR"/>
			<mean_scale_values value="{}"/>
			<mean_values value="()"/>
			<model_name value="face_detection_yunet_2022mar"/>
			<output_dir value="DIR"/>
			<placeholder_data_types value="{}"/>
			<progress value="False"/>
			<remove_memory value="False"/>
			<remove_output_softmax value="False"/>
			<reverse_input_channels value="False"/>
			<save_params_from_nd value="False"/>
			<scale_values value="()"/>
			<silent value="False"/>
			<source_layout value="()"/>
			<static_shape value="False"/>
			<stream_output value="False"/>
			<target_layout value="()"/>
			<transform value=""/>
			<use_legacy_frontend value="False"/>
			<use_new_frontend value="False"/>
			<unset unset_cli_parameters="batch, counts, disable_fusing, finegrain_fusing, input, input_checkpoint, input_meta_graph, input_proto, input_shape, input_symbol, mean_file, mean_file_offsets, nd_prefix_name, output, placeholder_shapes, pretrained_model_name, saved_model_dir, saved_model_tags, scale, tensorboard_logdir, tensorflow_custom_layer_libraries, tensorflow_custom_operations_config_update, tensorflow_object_detection_api_pipeline_config, tensorflow_use_custom_operations_config, transformations_config"/>
		</cli_parameters>
	</meta_data>
</net>
